pgr_goal_full_empty/run-demo/checkpoint.pth (torch, 2899 bytes, 4 tensors)

fc1.weight f4 [32, 4]
000000 20 47 c4 3c 60 ed 1c be 33 35 ec 3e 4c fc 99 be
       0.023959696 -0.15324926 0.46134338 -0.300753
000010 08 a2 51 3e fd 48 59 be 8a ef a1 be 5c 02 81 be
       0.20471966 -0.21219249 -0.31628066 -0.25197113
000020 3c bb 8a bf 86 4b a3 3d 79 62 b7 3e 95 ff 0f be
       -1.0838389 0.07973389 0.35817316 -0.1406234
000030 13 a6 88 bd e6 1d db 3e f4 c3 02 bb a2 36 ff 3d
       -0.06672301 0.42796248 -0.0019953223 0.12461592
000040 23 2a 52 3f b7 24 07 bc db 2f 1f bd 1c c0 9d 3c
       0.82095546 -0.0082485 -0.038863998 0.019256644
000050 31 58 69 be 99 48 8a 3e 88 6d bc be 37 ab 13 be
       -0.22787549 0.27008513 -0.36802316 -0.14420782
000060 1f 1c 40 3f b7 7e ed 3d 00 8b fb bd 39 ca 39 be
       0.7504291 0.115964346 -0.122823715 -0.18143548
000070 a8 94 8f 3f 63 b4 0b 3e 43 0a f4 be 21 79 ac be
       1.1217241 0.13643031 -0.4766408 -0.33686164
000080 67 5b 40 bf b7 8a 4d 3d e9 27 23 3f 93 a6 56 3b
       -0.7513947 0.050181117 0.63732773 0.0032753095
000090 18 42 28 3f 27 e7 0d 3e 30 92 04 be 37 5e f9 3d
       0.6572585 0.13857709 -0.12946391 0.12176173
0000a0 6e 74 9e be 38 6f 20 bf cd d5 f1 3e 46 79 a5 3e
       -0.30948204 -0.62669706 0.4723343 0.32319087
0000b0 ad 7e 42 3f a6 b4 a7 3e 91 bf 63 3e c0 fb c1 3b
       0.7597454 0.3275501 0.22241046 0.0059199035
0000c0 fd 72 67 bf 65 95 64 3d 98 75 04 3f ca 89 e6 3b
       -0.90409833 0.055806536 0.51741934 0.0070354687
0000d0 38 2b ca 3d 68 51 fd bd ea e0 a0 3e f0 33 79 3e
       0.098715246 -0.12369043 0.31421596 0.24336219
0000e0 a7 d0 6f bf 38 f2 e2 3d a0 eb d8 3e e5 18 8a be
       -0.93677753 0.11081356 0.42367268 -0.26972118
0000f0 90 d9 5c bf ff 7d 9e 3d 38 84 94 3e 76 3c 67 be
       -0.86269474 0.077388756 0.29007125 -0.22581658
000100 c7 43 8d bf d1 31 a2 3e 0d ee e9 3e 65 bd a1 3e
       -1.1036309 0.31678632 0.4568943 0.3158981
000110 e3 ba 12 3f 6d 07 85 3d 50 20 21 3d 5d 5b 7e 3e
       0.57316417 0.06495557 0.039337456 0.2483954
000120 44 1f 77 bf da 0e e3 3e ce cb ba be 40 4b 7a be
       -0.9653208 0.44347268 -0.36483616 -0.24442768
000130 f1 93 76 bf cc b6 ee 3d 8b 52 19 3f 85 9d 93 be
       -0.9631949 0.116559595 0.59891576 -0.28831115
000140 d1 a5 88 bf e8 dd 82 3e 34 1f c5 be d6 03 1c bf
       -1.0675603 0.25559926 -0.3850037 -0.60943353
000150 80 2d 27 3e 50 5e 3d bd 00 f8 78 bd 80 33 43 bc
       0.1632595 -0.04623252 -0.060783386 -0.011914134
000160 6a 64 fa be fc 84 b7 be 52 aa db be f0 21 87 3e
       -0.48904735 -0.35843647 -0.42903382 0.2639308
000170 f5 ed 7c 3f 20 f2 00 3f da 7b 32 be f6 a3 ca 3e
       0.98800594 0.50369453 -0.17430058 0.39578217
000180 90 d3 44 bf b7 cf 51 3d b8 9b 5f 3e 0d 50 8e bc
       -0.7688532 0.051223483 0.21836746 -0.017372156
000190 e5 ae 86 bf 1c d0 c7 3d f2 cc 97 3e 59 b1 b3 3e
       -1.0522124 0.097564906 0.29648548 0.35096243
0001a0 7e f1 46 3f 98 6c 56 3e af 0c 27 3e f2 a9 a9 be
       0.7771224 0.20939863 0.16313432 -0.3313747
0001b0 10 f9 d3 3e e7 f1 97 3e 68 3b 46 be e8 74 5f bd
       0.41400957 0.29676744 -0.19358599 -0.05455485
0001c0 d1 ca 9e 3f 64 2a 55 3e 64 5a f1 be a5 1c 5d 3d
       1.2405645 0.20816952 -0.47139275 0.053982396
0001d0 9f 11 8b bf 73 7a 39 3e b6 11 86 3e 73 f8 05 bf
       -1.0864753 0.18113117 0.26185387 -0.5233223
0001e0 84 58 7e 3f cb f4 06 3f c9 29 1c be a3 cc 8d 3e
       0.99353814 0.52717274 -0.15250315 0.27695188
0001f0 f0 49 2c bd 61 d6 02 bf 1d 99 d4 3d 9c bc e5 3e
       -0.0420627 -0.51108366 0.103807665 0.4487046

fc1.bias f4 [32]
000000 05 d1 a9 be 60 ae 39 bc 93 c7 2c 3f dc c0 1f bd
       -0.33167282 -0.011333078 0.67492026 -0.039002284
000010 42 f5 59 3e 8b 30 aa 3e a3 dd 36 be ac 7e 22 3f
       0.21284965 0.3324016 -0.17857985 0.63474536
000020 ab aa 30 3f 12 a6 e2 3e 07 eb f1 3e 91 1c 81 3e
       0.6901042 0.44267327 0.47249624 0.25217107
000030 fc 52 1d 3f ac 05 a5 be 0f aa af 3e 8e 0c f0 3e
       0.6145475 -0.3223089 0.34309432 0.46884578
000040 13 3a 88 3e b0 ec 0f be d7 33 8c 3d 1d 50 b0 3e
       0.26606807 -0.14055133 0.06845825 0.34436122
000050 f2 d4 8a 3e 1c a5 24 be 56 88 dc be 61 ff 71 3e
       0.2711559 -0.16078609 -0.43072766 0.23632576
000060 40 8e 00 3f e2 ff 00 3f cd 67 4a 3d b0 ab b5 be
       0.50217056 0.50390446 0.0494154 -0.3548255
000070 79 c0 9b be 52 52 29 3f 54 98 19 3f 29 ed a6 3e
       -0.30420282 0.66141236 0.5999806 0.32602814

fc2.weight f4 [4, 32]
000000 9c 84 3a 3e 02 23 f9 3d 27 f1 0f be 9e 8d 20 3d
       0.18214649 0.1216488 -0.14056836 0.039197557
000010 91 b0 fb bd d4 70 80 be 13 e5 1c be c4 83 62 be
       -0.12289537 -0.2508608 -0.1532176 -0.22120577
000020 27 44 58 3d 4a 91 87 be e2 d1 e4 3d 8c 26 e6 bc
       0.05279937 -0.26478034 0.111728445 -0.028094552
000030 ce 40 31 be 2f 2d 83 3d 76 3f 96 ba 32 7f a9 bd
       -0.17309877 0.064051025 -0.0011463005 -0.08276214
000040 c6 68 7e be 57 36 4f 3d 2f d6 6e be ec a4 0f be
       -0.24844655 0.050588932 -0.23323892 -0.14027756
000050 65 a2 9f bd 6e de 5a bd 50 8f 9d 3c 5b 7a bb bd
       -0.07794646 -0.05343478 0.019233376 -0.09154197
000060 7a c7 ef 3c 47 68 85 be 93 01 4a be 4c c7 31 be
       0.029269923 -0.2605612 -0.19727163 -0.17361182
000070 4c be e3 bd ce 43 fc bd 6d 23 82 be df fe 0b 3e
       -0.111202806 -0.1231762 -0.25417653 0.13671444
000080 bb 70 08 3d 29 d2 e1 3b 7f e4 43 3f 0d d3 3c 3e
       0.033310633 0.006891508 0.7652053 0.18439884
000090 a6 3c 5f be d2 63 51 3e 0c 02 ad be 51 bf 81 bc
       -0.2180048 0.20448235 -0.33790624 -0.015838297
0000a0 84 5c 21 3f 13 f5 34 3d 64 45 d7 3b 1c 4c eb 3d
       0.6303179 0.044179033 0.0065695513 0.11489126
0000b0 8a 51 1b 3f a0 2b da 3d e0 41 b0 3e 8a eb 1b 3f
       0.60671294 0.10652852 0.3442526 0.6090628
0000c0 ed 74 e1 3e db 02 60 be 2d bb 2f 3e e2 b6 f6 3e
       0.4403452 -0.2187609 0.17161246 0.48186404
0000d0 c6 cd 05 3f a8 a9 34 be 34 b9 51 3d 82 20 46 bd
       0.5226711 -0.17642844 0.051202014 -0.048370846
0000e0 73 78 40 3f 93 d8 25 3f 08 06 a2 3c b0 81 b0 bd
       0.7518379 0.6478359 0.019778267 -0.08618486
0000f0 55 3d e0 be e4 7b e9 3e 06 63 a0 3d 6b 03 c7 bd
       -0.43796793 0.45602334 0.07831387 -0.09717449
000100 72 8d 03 bf 91 83 a3 bd 43 97 1a bf bb 29 40 3e
       -0.51387703 -0.07984079 -0.6038706 0.18765919
000110 23 f4 8c 3e df 4b 01 3e 05 21 9c 3e 42 ae de 3e
       0.27530012 0.12626599 0.30493942 0.43492323
000120 99 f4 04 bf 97 9a 79 3e e8 e9 ee be 5f 1b 9a 3e
       -0.51935726 0.24375378 -0.4666283 0.30099007
000130 00 fe f4 be 37 43 1f 3d ea 58 e3 be c1 88 41 bf
       -0.47850037 0.03888246 -0.44403774 -0.75599295
000140 e3 68 9d be dd ec 7a 3e df 67 f6 bd 9e 80 1b bf
       -0.30744085 0.24504419 -0.120315306 -0.6074313
000150 aa c6 82 be 6c fb 74 bd 9c 42 04 bd f0 40 a0 3e
       -0.25542194 -0.059810087 -0.032290086 0.31299543
000160 1c 44 18 bf 24 e2 1f bf 4d 72 b7 3e b8 99 2a 3d
       -0.59478927 -0.6245444 0.35829392 0.041650504
000170 e0 03 0f 3f 65 ba 03 be ed b4 ae 3e 6a cc 68 be
       0.5586529 -0.12864073 0.3412241 -0.22734228
000180 c1 32 ff bd 47 07 17 3d b6 eb 61 be 38 8c e7 be
       -0.124608524 0.036872175 -0.22062573 -0.45224166
000190 5f c4 a0 be 50 60 f9 be 5e f2 c1 be c7 02 a6 be
       -0.3139982 -0.48706293 -0.37880224 -0.32423994
0001a0 01 38 6f be e2 ef a5 be be e8 09 be d0 c6 63 be
       -0.23361208 -0.3240958 -0.1346769 -0.2224381
0001b0 bd 05 a8 bb 21 bd 88 bd 3a 08 09 bb fd 27 bb bd
       -0.005127637 -0.066766985 -0.0020909444 -0.091384865
0001c0 2c 66 51 be 04 3f 55 3c a6 9f a4 be 21 c4 4c be
       -0.20449132 0.013015512 -0.32153052 -0.19996692
0001d0 32 fa 7b be bd 68 1e 3e 38 83 98 bc 7c 54 d4 be
       -0.2460716 0.15469642 -0.018617257 -0.41470706
0001e0 21 bf a3 be 5e 95 14 be 5b 3e 4b be 8d 39 af be
       -0.31981757 -0.14510104 -0.19848005 -0.34223595
0001f0 d6 48 30 be 0c 33 23 be b7 e4 fd be 3b a7 94 bd
       -0.17215285 -0.15937442 -0.49588558 -0.07258459

fc2.bias f4 [4]
000000 f0 41 06 be e3 25 e7 3d f2 01 5d 3e ff bc 8b be
       -0.1311109 0.11286523 0.21582773 -0.2729263
