dqn_goal_full_empty/checkpoint.pth (torch, 21285 bytes, 6 tensors)

fc1.weight f4 [64, 4]
000000 2a f4 f1 bf 8c f3 1a 3e 16 b3 d2 be 6f 5d 15 3f
       -1.8902638 0.15131968 -0.41152257 0.58345693
000010 55 55 cf bf 47 d6 ee 3c 96 8b 23 3f c9 77 87 3f
       -1.6197916 0.02915491 0.63884866 1.058343
000020 a3 49 a9 3f 5b f3 c0 3d 76 45 ad 3d f2 e3 45 be
       1.3225597 0.09421416 0.08460514 -0.19325235
000030 b8 91 f4 be 52 8b a9 be e8 0e 53 be 00 bb 97 3c
       -0.47767425 -0.33114105 -0.20611155 0.018521786
000040 13 66 91 3f 45 6f f9 3d e2 37 81 3e a5 e5 7a be
       1.1359276 0.12179426 0.25237948 -0.24501665
000050 f0 b5 d8 3f 7e 1a ad 3e d5 53 05 bf a2 cf 97 3f
       1.6930523 0.33809274 -0.5208104 1.186024
000060 b4 b0 5e c0 99 9a f2 3d 05 b6 06 40 6b e2 8e bf
       -3.479535 0.118458934 2.1048596 -1.1162847
000070 cd ec 3e bf e0 9e 01 be 40 3a 42 3e 28 2f dd 3e
       -0.7458008 -0.12658262 0.18967533 0.4320004
000080 1a ef a5 be c0 b0 6b be 1a da b2 be 76 c2 ef be
       -0.32408983 -0.23016644 -0.34932023 -0.4682805
000090 a5 24 2f c0 8d 13 6c 3e e1 79 4a 3e f9 41 47 3d
       -2.7366116 0.23054333 0.19773056 0.0486469
0000a0 40 6a d7 3c 3a 3f 83 be c0 3e ad 3d 9e 06 ef be
       0.026295781 -0.25634176 0.08459234 -0.46684736
0000b0 94 b1 4b bf c6 f9 83 be 73 c7 34 3f 26 19 96 3e
       -0.7956784 -0.257765 0.70616835 0.29316062
0000c0 73 55 88 3e 2e b1 3a 3d d7 4e e7 3e c7 8e f4 3f
       0.26627693 0.045579128 0.45177338 1.9106072
0000d0 b0 36 14 bf 6e 33 54 bc bb 4b b8 3e b7 a8 19 bf
       -0.57895947 -0.012951715 0.35995278 -0.60023063
0000e0 f8 d0 be 3d 6c 7a c6 be 18 6e b1 be d2 3e 84 be
       0.093172014 -0.38765275 -0.34654307 -0.25829178
0000f0 d3 7e 4e 3f d8 3c b4 3d d4 df 96 3e 81 a0 ad 3f
       0.8066227 0.088006675 0.29467642 1.3564607
000100 6e 89 8c 3e 20 3f 81 bd 40 64 9c 3c 00 44 ed 3d
       0.274486 -0.06310868 0.019090772 0.115852356
000110 15 e2 03 40 ca bd be 3e 43 ed e0 bf cd c3 5c bf
       2.060674 0.37254173 -1.7572407 -0.8623627
000120 b8 39 25 3f 93 e8 92 3e a5 d8 b2 3f 67 88 f2 3f
       0.64541197 0.28693065 1.3972365 1.8947877
000130 78 ca cb 3d f8 9c de be 90 66 3c 3d ac 27 a0 be
       0.09950727 -0.43479133 0.04599625 -0.31280267
000140 9c 93 59 bf 4d e2 b8 3e f1 28 f7 3e 8c 99 80 3e
       -0.8499086 0.36110154 0.48273423 0.25117147
000150 08 aa bf 3d c8 80 ac bd b8 82 a8 bd 1c 5f 6a be
       0.09358603 -0.084230006 -0.082280576 -0.22887844
000160 3f 1c ec 3e 34 a1 97 be 09 1d 52 3f 16 76 81 3e
       0.461153 -0.29615176 0.82075554 0.25285405
000170 14 9b eb 3f c1 0e 8f 3d fd 3d f8 bf 21 84 6e bf
       1.8406701 0.06985236 -1.9393917 -0.9317036
000180 7e fe 0c c0 a1 35 12 3d 96 b3 c7 be 92 8c 13 c0
       -2.203033 0.035695676 -0.390042 -2.3054547
000190 c2 79 04 40 31 60 93 3e fd 6e b9 bf 8b 29 6f 3f
       2.0699315 0.28784326 -1.4486996 0.93422765
0001a0 78 dd f3 be 80 3e 13 bc 78 c8 c0 be a2 77 c5 be
       -0.47629905 -0.008987069 -0.37652946 -0.38567835
0001b0 c9 27 1b c0 48 32 e1 3c d4 88 89 be 60 bc 3e 3f
       -2.4243033 0.027489796 -0.26862204 0.7450619
0001c0 a8 b5 8d bf 57 ad ba 3e 4a ba 55 3f 60 4f 56 3f
       -1.1071062 0.36460373 0.8348738 0.83714867
0001d0 12 83 ec 3f 3d fc 40 3d 2c 7e b9 be 77 48 f4 3f
       1.84775 0.047115553 -0.36229074 1.9084615
0001e0 ba d6 1c c0 88 be 3f 3d cc d1 79 be d0 c7 81 be
       -2.4506059 0.046812564 -0.24396437 -0.25347757
0001f0 56 91 f5 be a0 bb 97 be 76 02 0f be ec 66 79 be
       -0.47962445 -0.29635334 -0.13965783 -0.24355668
000200 5c 1d 33 be ba d2 d1 be 00 d2 d9 bd f8 e2 da 3d
       -0.17491668 -0.40981084 -0.106357574 0.10687822
000210 11 11 21 bf 40 34 d2 bc 3a 7a 2f 3f f0 88 52 bd
       -0.62916666 -0.02565968 0.6854588 -0.051400125
000220 80 ac 63 3c c0 ad 30 bd 10 3d cf 3d 60 c6 a2 3e
       0.013896108 -0.04313445 0.101190686 0.31791973
000230 b4 36 c3 be 71 21 08 3e a7 f1 ae 3e a2 8b 97 3e
       -0.38127673 0.13294007 0.3416874 0.2959872
000240 16 81 26 bf 40 ba 72 be 02 5e 5b 3f 00 6b 54 bb
       -0.6504072 -0.23703861 0.8569032 -0.003241241
000250 dc 7c 7e be 02 2d c4 be 00 94 ef be ec 10 d8 be
       -0.24852318 -0.38315588 -0.46792603 -0.4220041
000260 6e 14 99 bf 2b 16 1c 3e 0f 74 59 3f 54 6f 09 3e
       -1.195936 0.15242831 0.84942716 0.13421375
000270 2e b0 9f 3e 8a 52 c8 be f0 7b d8 bd 1c 9a 4f be
       0.31189102 -0.39125472 -0.10570514 -0.20273632
000280 f0 3c c5 bd 10 0e c9 bd ba b8 e5 be 44 0a dd be
       -0.096307635 -0.09817135 -0.44867498 -0.43171895
000290 29 2c 96 c0 5f 05 5b 3d b8 96 68 be d6 57 98 c0
       -4.6928906 0.05347192 -0.22713745 -4.760722
0002a0 da de 13 3f b9 3e 12 bd 5c fa fa 3e cb 0d bb be
       0.5776192 -0.03570435 0.49019134 -0.3653396
0002b0 20 3a 95 3f 2c 31 f2 3d 21 ed 0a bf c0 bd 05 40
       1.1658363 0.11825785 -0.5426808 2.0897064
0002c0 f7 d5 92 3e 70 8f 64 be 2d 69 8e 3f 54 df ce be
       0.28678867 -0.22320342 1.1125847 -0.4040476
0002d0 ee e1 da 3e c0 64 d6 bd 7f 75 45 3f 08 ec 0e 3e
       0.42750496 -0.10468435 0.7713241 0.13957226
0002e0 0b 6e c5 3f cf de 96 3d 58 0a b4 3e 3c 78 73 be
       1.5424207 0.07366716 0.35164142 -0.23776335
0002f0 3d 4f 3d c0 e6 35 45 3d 6c 88 55 3d 87 ea 1f 40
       -2.9579613 0.048147105 0.052132055 2.4986894
000300 3a 65 b6 c0 67 40 87 3d bc 4b e8 be 56 22 1e c0
       -5.6998568 0.06604081 -0.4537028 -2.4708457
000310 7d 95 44 c0 eb f6 6e 3d c4 8d 98 be aa 49 a7 bf
       -3.071624 0.058340948 -0.2979566 -1.3069355
000320 7a 34 ff 3f 3a f6 64 3e fa 76 15 c0 a9 45 b0 3c
       1.993789 0.22359553 -2.3353868 0.021517592
000330 cf 91 d1 3f c2 5f 19 3e 09 ad 76 bf 00 b7 60 3c
       1.6372622 0.14977935 -0.9635778 0.013715506
000340 cd 85 03 bf df fa 48 3b 65 b2 35 3e c8 21 2c 3f
       -0.5137604 0.003066711 0.17743833 0.67239046
000350 40 7a 80 3d 30 d3 e9 bd 00 3e 66 bb c0 a7 82 3d
       0.06273317 -0.11417234 -0.003513217 0.06379652
000360 98 3e c8 be 7a 2d 86 be d8 b7 ce 3e 86 c1 cf be
       -0.39110255 -0.2620657 0.40374637 -0.40577334
000370 24 4b e6 bf d3 9c b2 3e 3f c9 5d bd bf d4 28 be
       -1.7991681 0.34885272 -0.054147 -0.16487406
000380 41 9e b6 3f c5 98 34 3e c1 1b 08 c0 40 91 07 bf
       1.4267045 0.17636402 -2.126694 -0.5295601
000390 cc c8 2b be 38 a4 97 bd 80 36 b3 3b 96 26 d3 3e
       -0.16775817 -0.07404369 0.0054691434 0.41240376
0003a0 66 d4 34 bf 07 4c b3 3e 61 3e fa 3e 71 50 a6 3c
       -0.70636594 0.35018942 0.48875716 0.02030203
0003b0 2d a4 c6 3e 24 f7 b4 be 7f d2 bc 3e 40 97 16 3e
       0.3879713 -0.35344803 0.36879346 0.14706135
0003c0 12 e0 dd 3e 25 07 43 3e 83 ec 9e be ba 15 fb 3e
       0.43335015 0.19045694 -0.3103982 0.49040014
0003d0 3c f9 33 3f 5a 93 f7 be 50 5c 83 3f 30 b1 d3 be
       0.70302176 -0.48354608 1.0262547 -0.4134612
0003e0 00 d0 e1 3b e0 18 ae bd 0a d4 86 be d8 57 87 3d
       0.0068912506 -0.08500838 -0.26333648 0.06608552
0003f0 e5 50 92 3f e8 aa 15 be f5 a3 59 3e 84 5b 3d be
       1.1430937 -0.14615977 0.21253951 -0.18491942

fc1.bias f4 [64]
000000 83 86 6f bf 70 6e 70 3f 31 a7 df bf d0 d6 aa be
       -0.93564624 0.93918514 -1.7472898 -0.33367014
000010 c4 a8 96 bf c4 13 38 3f 71 5c 5c 3f 4d b1 44 3f
       -1.1770253 0.7190516 0.86078554 0.7683304
000020 d8 b6 39 3e 75 e7 c0 bf d4 13 0f be 70 d5 09 3f
       0.18136156 -1.5070635 -0.13972408 0.53841305
000030 40 e6 b6 3f 28 0f c9 3f 1c 40 72 be 53 aa db bf
       1.4289017 1.570775 -0.23657268 -1.7161354
000040 42 0a f2 be 3f 30 3c 3f 07 99 d0 bf 50 3e e4 be
       -0.4727345 0.7351112 -1.62967 -0.4457879
000050 8b 4d 57 3f d0 3f a6 be d3 a0 14 3f 31 7c ac 3e
       0.84102696 -0.3247056 0.580579 0.336885
000060 fe ba 2b bf 2c 0e 17 3e 2c ee ce be 3e a0 61 3e
       -0.670822 0.147515 -0.40416086 0.22033784
000070 8e a7 d3 3e ba 4c 54 3f 43 6c aa bf be f8 07 3e
       0.41338772 0.82929575 -1.3314289 0.13278481
000080 18 2a ea bd b4 50 9c 3e 52 ea 9b be 1d 3a a1 3f
       -0.1143381 0.30530322 -0.3045221 1.259586
000090 34 ae 2c 3f 40 fd 28 bc 08 18 a8 3e 58 ce 9d be
       0.6745331 -0.010314286 0.32830834 -0.3082149
0000a0 14 09 b1 3e 06 65 3c bf 8e 17 38 40 4a 6d 0a c0
       0.3457724 -0.7359165 2.8764377 -2.1629205
0000b0 8e 6c f1 3e 38 0c 01 3f 84 f8 8f bf 08 e9 6a bf
       0.47153133 0.5040927 -1.1247716 -0.9176183
0000c0 11 e2 80 bd 47 1c d3 bf a6 b6 ae 3e 5a 21 48 3f
       -0.06293119 -1.6493005 0.34123725 0.7817589
0000d0 ba b4 9d 3f 58 e6 80 bd 9a dd d1 be 80 9e ac bf
       1.2320778 -0.062939346 -0.4098938 -1.348587
0000e0 39 dc 32 3f 2c d1 3a be 4f 8b ef 3e ed e7 69 3f
       0.69867283 -0.18243855 0.46785972 0.91369516
0000f0 8a d5 02 c0 b9 70 2b 3f 24 b6 53 3e 50 6f 0c 3f
       -2.0442834 0.66968876 0.2067495 0.5485735

fc2.weight f4 [64, 64]
000000 be 79 a3 3d dc de 3e 3e ec f6 8b be e0 f2 20 3c
       0.07982205 0.18639702 -0.27336824 0.009823531
000010 7e 78 85 3d 01 e5 13 3e 6f e5 a1 3e f4 77 96 bd
       0.06517123 0.14442827 0.31620356 -0.07347098
000020 7c 1c 6f 3d 5d 90 11 bd ec 24 d4 bd b6 f6 5b be
       0.058376774 -0.035538066 -0.10358605 -0.21480832
000030 7a a9 9e 3c 3f 80 23 3f b2 f4 b0 bd 90 9d 97 bd
       0.019367922 0.63867563 -0.08640422 -0.074030995
000040 aa 52 c1 3d 63 b3 3c 3e ad 4d cf 3d 44 56 c6 3d
       0.09439595 0.18427806 0.10122237 0.096844226
000050 a1 3a 9d 3c a0 ae 33 bd a4 d9 0e 3d 32 02 d4 3d
       0.019192996 -0.043867707 0.034875527 0.10351981
000060 94 be 3c bf e1 cc 1b 3e 90 60 77 3d 42 c7 53 bd
       -0.737283 0.15214874 0.060394824 -0.0517037
000070 a2 1a 26 bd d3 d9 6e 3e a9 bf ca bf c0 e4 b1 3d
       -0.040552743 0.23325281 -1.583974 0.08686209
000080 58 42 b8 bc dd 8a 6c bd 80 e2 b5 3c 73 7f 10 3e
       -0.022492573 -0.057749618 0.02220273 0.14111118
000090 68 f1 18 be f4 a2 79 3d 24 f2 c6 bc 88 46 e7 3c
       -0.14935839 0.06094642 -0.024285384 0.028231874
0000a0 20 35 ad bd 57 5c a3 bf 2a 53 85 c0 f4 7a da bb
       -0.084573984 -1.2762555 -4.166402 -0.006667489
0000b0 42 53 82 bc 83 58 90 3c 9e ff 3e 3c 5d 59 af be
       -0.015908841 0.01762033 0.011657624 -0.34247866
0000c0 bd fe 57 bf 46 a8 90 bf 10 b4 2c bd 6d 7b 04 3e
       -0.84373075 -1.1301353 -0.04216391 0.12937708
0000d0 85 1b 98 3d 38 ce 79 bd c4 51 f7 bd bf 70 33 bd
       0.07427124 -0.06098768 -0.120761424 -0.043808695
0000e0 c8 5f 1e 3e 42 9a d1 3d b6 73 16 3e 37 bc 1f 3d
       0.15466225 0.102345005 0.14692578 0.038997855
0000f0 b2 b8 91 3d 08 3b ef bd f4 47 61 3d b8 70 46 3e
       0.07115306 -0.11681181 0.05500026 0.19378936
000100 50 f9 a2 bf 5b a8 f5 3e 50 96 a6 bf 58 24 9f 3d
       -1.2732334 0.47980008 -1.3014622 0.07770604
000110 9c cd e5 be b5 64 b3 3b fc 55 f4 3f e8 e0 71 3e
       -0.4488343 0.0054746517 1.908874 0.23620951
000120 4a 4f 90 bd 2a 01 ac bf b2 fc c4 bd 52 a7 71 3e
       -0.07046373 -1.3437855 -0.0961851 0.23598984
000130 58 13 dd 3f c1 e8 7c 3f c4 24 94 bd b3 42 79 bf
       1.7271528 0.98792654 -0.07233575 -0.973674
000140 8c b5 a3 3d a5 e0 2c bd 90 2f 0e bf b8 46 eb 3d
       0.07993612 -0.042206425 -0.55541325 0.11488098
000150 9f d4 0d 3d 5a 57 c2 bd d7 44 89 bc 01 33 b1 3d
       0.0346266 -0.09489317 -0.016756458 0.08652306
000160 e0 3f 3d 40 6e 2f a9 bd d6 74 91 bd 48 1d e6 3f
       2.9570236 -0.082609996 -0.07102363 1.7977686
000170 1a b3 19 bc c3 db 83 3e de e6 91 bf 97 d3 22 bd
       -0.00938108 0.25753602 -1.139858 -0.03975257
000180 dc fa 0a bd a2 bb f8 3d b0 fe 43 3c 44 cb 76 3e
       -0.033930644 0.12145163 0.011962578 0.24100977
000190 7b 7b b7 3d 8c 10 9e bd 0d 63 c7 bd 58 7f 75 3d
       0.08959099 -0.07718 -0.09735689 0.059935898
0001a0 fc f8 7d 3d 24 cd b7 3f ec a1 65 40 bf 7f b1 bf
       0.062005028 1.4359479 3.588008 -1.386711
0001b0 bb bd 24 be a2 e5 10 be dd af 27 bf 70 70 1f 40
       -0.16088001 -0.14150098 -0.6550272 2.4912376
0001c0 cc ee fd 3f 04 35 97 be d9 a0 03 be 03 d2 8d 3d
       1.98385 -0.29532635 -0.12854327 0.06924822
0001d0 29 7a 2b 3f 46 27 c3 bd ec 5d 7e 3d d4 45 13 bf
       0.66983277 -0.09528975 0.06210129 -0.57528424
0001e0 03 e4 69 bd c0 be f8 bd e7 cb 90 bd 4d 51 f2 bc
       -0.057102215 -0.12145758 -0.07070141 -0.029579783
0001f0 05 bd 6b bf f9 04 b3 bd cc cf 4c bd e1 57 93 be
       -0.92085296 -0.08741183 -0.050002858 -0.28777984
000200 e1 45 4e 3d f1 47 49 3d 01 8e d4 bd 6e d7 89 3d
       0.05035961 0.049140874 -0.103786476 0.06730543
000210 b0 0c d4 3d 5c cf d1 3d 0b d6 10 3e 1f 91 61 bd
       0.103539824 0.10244629 0.14144151 -0.05507004
000220 20 23 dc 3b 8d 01 97 3d ac 44 cd bd fd 58 3f be
       0.0067180544 0.07373343 -0.10022864 -0.1868629
000230 de c1 00 be a5 7a e6 3e a0 e8 dc 3c 7e da 7f be
       -0.12573954 0.45015445 0.026966393 -0.24985692
000240 10 35 23 3d 4e fb 00 3e f4 9d 83 3b 0c 49 ab bd
       0.039845526 0.12595865 0.004016632 -0.08363542
000250 8c 88 34 bd e4 f5 1d bd 37 0b bd bd 0f 8f 2e 3e
       -0.044075534 -0.038564578 -0.09230655 0.1704676
000260 59 9f a5 be ee a4 df 3c 00 84 33 3d b2 71 14 be
       -0.32348135 0.027300324 0.043827057 -0.14496496
000270 af 30 83 bd 8c ba 8c 3e d4 1d 7e bf 2c 52 76 3d
       -0.0640577 0.27486074 -0.99264264 0.06013696
000280 f8 b7 b4 bd cc 97 64 be 48 dd d2 bd af 8b 27 3e
       -0.08824152 -0.22323531 -0.10296112 0.16361879
000290 2e 4e 27 be 94 04 c5 3d 6f 7b 13 3e dc a7 8d 3d
       -0.16338417 0.09620014 0.14402555 0.06916782
0002a0 20 b6 83 3b c7 e5 9f bf e2 1b 3d c0 0b 89 07 be
       0.0040195137 -1.2491997 -2.9548268 -0.13235871
0002b0 7c 45 b3 bd b9 cc 72 be 08 9f 86 3c c1 d2 76 be
       -0.087534875 -0.23710908 0.016433254 -0.24103834
0002c0 35 df 64 bf 40 35 4c bf c0 cf 1e 3e 8b f3 30 3e
       -0.89403087 -0.79768753 0.15508938 0.17280404
0002d0 7f 9b 9e 3d 6e 8e b4 3d f8 4b 80 3d 2f bc c3 3d
       0.07744502 0.08816229 0.0626449 0.095573775
0002e0 7b e2 28 3e a6 f8 89 bd ee 20 cd 3d ce d4 c3 bd
       0.16492645 -0.06736879 0.100160465 -0.09562074
0002f0 94 78 b2 bd 9d bf d3 bd 2c 4f 13 bd 24 7c 04 be
       -0.08714405 -0.10339282 -0.035964176 -0.12937981
000300 88 0e 0e bd 14 df 3e bd 40 e5 00 3d 68 9a 35 3d
       -0.034681827 -0.046599463 0.03146863 0.044336706
000310 10 26 7a bd 30 0a 35 3c 74 5c 94 3d f0 c4 4b bc
       -0.061071455 0.011049792 0.072441965 -0.01243709
000320 a8 d1 1b 3d b8 f9 f6 bc b0 74 33 3d e6 71 b9 bd
       0.03804174 -0.030148372 0.043812454 -0.090549275
000330 0e 89 96 bd 74 f1 81 bd 4c 44 eb 3d 64 c5 09 bd
       -0.0735036 -0.06344882 0.11487636 -0.033635512
000340 00 f0 b2 b9 cc 0f 78 bd f0 8f ff 3d 0e 07 fa 3d
       -0.0003412962 -0.06056194 0.12478626 0.12208377
000350 60 12 c1 bd 10 88 cf bd d4 0b c2 bd 00 08 1e ba
       -0.09427333 -0.10133374 -0.09474912 -0.0006028414
000360 c4 82 02 bd 4e 90 a7 bd e0 a3 37 bd 18 77 c1 3c
       -0.03186299 -0.08181821 -0.044834018 0.023616359
000370 f4 c1 85 bd 88 e6 e2 3c c8 d1 ea bc b0 18 78 bd
       -0.06531134 0.027697816 -0.028664485 -0.06057042
000380 c8 ae 8c 3c 84 7f d2 3d 88 13 ad bd 00 32 be 3b
       0.017173186 0.10278228 -0.08450991 0.0058043003
000390 20 cf 3c bd e4 36 fb 3d 26 e2 f2 bd d2 6a f5 bd
       -0.046095967 0.12266329 -0.11859541 -0.11983265
0003a0 30 42 fc 3d f8 f7 a1 bd 20 53 c4 3c 40 c1 30 bc
       0.12317312 -0.079086244 0.023965418 -0.010788262
0003b0 78 b6 d7 bc 48 b5 e4 bc 3c ac a2 3d c0 c6 c3 3b
       -0.026332125 -0.027918473 0.07943007 0.0059746206
0003c0 ce 3e f9 bd d8 21 97 bd 7c 8a 2e bd ca d2 80 3d
       -0.12170182 -0.07379502 -0.042612538 0.06290205
0003d0 8e aa a5 bd 2e 63 f1 3d 28 13 e4 bc 18 df b7 bc
       -0.08089171 0.11786495 -0.027841166 -0.022445247
0003e0 42 97 c8 3d e6 aa 80 3d 6a 1e d9 3d ee 14 94 3d
       0.09794475 0.06282596 0.10601504 0.072305545
0003f0 34 51 1b bd 54 d9 a9 bd a0 60 18 bc 0e e0 d3 3d
       -0.03791924 -0.08293405 -0.009300381 0.103454694

fc2.bias f4 [64]
000000 d6 d7 36 3f 8b 5c 24 40 a0 f3 21 3f fa b2 94 bd
       0.7142309 2.5681484 0.6326237 -0.072606996
000010 60 15 22 3f 9c 03 16 3f 8c fa 44 bd 54 34 e7 bd
       0.63313866 0.5859926 -0.048090503 -0.11289278
000020 9b 2d 45 3f 85 b9 08 be ae 83 79 3e 25 33 22 3f
       0.77022713 -0.1335202 0.24366638 0.6335929
000030 7f 26 db bd 4e ee 69 3c 80 5c 5c bd bd 3c eb 3d
       -0.10700702 0.014278008 -0.053799152 0.11486194
000040 8e d1 26 3f be cd 41 bd 20 6e 66 3e 01 8a e2 bc
       0.65163505 -0.04731535 0.22502947 -0.027653696
000050 bd 49 8b bd 5b 1e 3a 3f 0b 3b 40 3c 65 ef 1d 3f
       -0.06801174 0.7270257 0.011732827 0.6169341
000060 98 b2 69 3e a0 79 74 3d 17 1f c8 3e 76 e0 c8 bc
       0.22822034 0.059686303 0.3908622 -0.024521094
000070 b8 fc 56 3d 6d 6a 6e 3c 72 42 60 3e a0 da 01 3f
       0.052487105 0.014551741 0.21900347 0.5072422
000080 5c a5 82 bd 59 f3 a7 bd 68 f5 05 3f b8 b1 3c bc
       -0.06379196 -0.08200712 0.52327585 -0.011516981
000090 a4 bf d2 3e 2f e1 86 3e 90 d5 dc 3c bf 49 d0 3d
       0.41161835 0.26343676 0.026957303 0.10170316
0000a0 a8 59 72 bc f8 e9 00 3d 94 84 2d be d6 c1 04 3f
       -0.0147918835 0.03147313 -0.16945106 0.5185827
0000b0 d6 c0 9c 3c 59 d8 fc bd 0d 34 13 3f 89 d3 46 bd
       0.01913492 -0.123459525 0.575013 -0.04854158
0000c0 e0 dc f5 bb da 9e f7 3d 5d ac 28 3f 72 7f b7 bd
       -0.007503137 0.120908454 0.65888005 -0.08959855
0000d0 0e 7a a7 3e f4 25 4c 3f 27 6d 26 bc 57 ea 84 3e
       0.32710308 0.7974541 -0.01015786 0.25960037
0000e0 ea d5 aa 3e 62 57 28 bd c8 80 8f 3d 6e 03 d5 3e
       0.33366328 -0.04109896 0.07006985 0.4160418
0000f0 87 52 5c 3c 80 2a c0 ba 7e be a8 bb 4e 06 9e 3f
       0.01344741 -0.0014661103 -0.0051496616 1.2345674

fc3.weight f4 [4, 64]
000000 62 fe da be 2a 4d 10 40 ba c3 f4 be bc 01 4d bd
       -0.42772204 2.2547097 -0.47805578 -0.050050482
000010 9a 9d 1e 3f 0a 3f 1f 3f f8 22 bf bc 40 13 4a bd
       0.6195923 0.62205565 -0.023332104 -0.049334764
000020 41 27 44 3f 2c e9 f8 bd ef 98 2f be 61 5c d1 be
       0.76622397 -0.12153849 -0.17148183 -0.40890792
000030 de 21 b2 3d ea 6f c1 3d 70 f1 24 bd a2 fb 05 3d
       0.08697866 0.09445174 -0.040269315 0.03271068
000040 f4 0c 02 bf a2 b5 4c 3d ea 1f cb 3e bb a3 e7 bc
       -0.50801015 0.049977906 0.39672786 -0.028276315
000050 37 ac 18 3d 8e 4c ee 3f d0 44 c0 3d e8 df 05 3f
       0.037273612 1.8617113 0.09388125 0.5229478
000060 6d 46 02 3e d8 b2 e8 bd 6a 59 bd be e6 2a 19 3d
       0.12722178 -0.11362237 -0.3698228 0.037394427
000070 d8 ec 78 3d 5e 14 b7 3c 31 82 22 3e 18 46 21 3f
       0.060772747 0.022348579 0.15869977 0.6299758
000080 ca 2e 01 3c 9e 0d d2 bd 1d 67 0a 3f 59 17 0f bd
       0.007884691 -0.102565035 0.5406359 -0.034934375
000090 3d 49 b6 3e 3c 18 00 3e 3c de 8e 3d 68 18 89 3c
       0.3560275 0.12509245 0.069759816 0.01673527
0000a0 b2 8a 96 bc 66 12 13 bd 7d 43 c9 3d 9c 9c 44 3f
       -0.018376682 -0.035906218 0.098273255 0.76801467
0000b0 6a 1f 70 3d 70 c2 e0 3e e0 78 f4 3e 68 ce d5 3c
       0.05862371 0.43898344 0.4774847 0.026099399
0000c0 84 76 dd bd 10 bb 94 3d 84 fe be 3e f4 d8 ff bd
       -0.10813621 0.07262242 0.37303555 -0.124925524
0000d0 e9 1f 0f bf da fc ad be e0 25 5d 3b 06 e9 e0 be
       -0.55908066 -0.33981973 0.00337445 -0.43927783
0000e0 1a 13 d1 3e 5c c4 41 bd ac d4 4f bd c3 fc 2f 3f
       0.40834886 -0.047306404 -0.05073993 0.6874506
0000f0 00 14 fa bc b2 86 9d bd 8b e8 01 bc 72 b9 25 3f
       -0.030527115 -0.07691707 -0.007928978 0.6473609
000100 46 f6 ba bf 6f 43 83 40 76 f1 19 bf 44 22 54 bd
       -1.4606407 4.1019816 -0.60134065 -0.05179049
000110 45 c5 03 3f 82 eb 1a 3f b9 0b bb 3d 00 20 44 b8
       0.51472884 0.60515606 0.09133095 -4.6759844e-05
000120 cd 77 21 3f 92 bc 19 bd 68 37 5a 3e 7a 73 80 bf
       0.63073426 -0.03753335 0.21310198 -1.0035241
000130 de 6b ab bd e4 10 5b bd 71 2f 84 3b 14 c5 9e bd
       -0.083701834 -0.053482905 0.004033976 -0.077524334
000140 37 58 f1 be 76 10 75 3d 1d c2 e8 3e b5 7d f9 bc
       -0.47137615 0.05983015 0.45460597 -0.03045545
000150 0c e0 be bd 54 a1 33 40 d4 cc 5e 3d 10 74 cf 3e
       -0.09320077 2.8067217 0.054394558 0.40518236
000160 6d d6 2e bf d4 76 e1 bd 06 fd d8 be be fa 4e bc
       -0.6829594 -0.11008993 -0.42380542 -0.012633024
000170 be 6b 93 3d 50 36 72 bd b0 46 a6 be 45 e3 ef 3e
       0.071982846 -0.059133828 -0.32475805 0.4685308
000180 9e b7 aa bc cf af db bd 8c b9 06 3f ca 1a 64 bc
       -0.020839509 -0.10726892 0.5262687 -0.013922403
000190 84 21 fa 3e b1 4f 48 be f8 4c f9 bd e0 0e cc bd
       0.48853695 -0.1956165 -0.12172884 -0.09963775
0001a0 df 23 5e bd 97 cb e2 bc f2 0e c9 3a 4e cc 2d 3f
       -0.054233428 -0.02768497 0.0015339537 0.6788987
0001b0 11 26 ca bd 80 ba fe 3e cc d3 15 3f 00 e7 52 3a
       -0.09870542 0.49751663 0.585263 0.0008045286
0001c0 02 a7 9f bd e0 01 83 3b b4 0f f6 bf 38 8a 62 3d
       -0.07795526 0.0039980263 -1.9223542 0.055307597
0001d0 d0 1e 9b be d4 d0 13 bf 0a a6 4a bd 12 4d cd be
       -0.30296946 -0.5774052 -0.049474753 -0.40097862
0001e0 c9 38 fd 3e c9 ea aa bd 36 b5 41 bd 90 8b 0e 3f
       0.49457386 -0.08345563 -0.047291957 0.55681705
0001f0 d0 7f 9f 3d 6a 9e e3 3d 4d 7d a4 bd ce 76 a8 3f
       0.0778805 0.111141995 -0.08031712 1.3161256
000200 04 23 b4 3e b2 ed e9 40 db cd 10 3e f8 9a cd 3d
       0.35182965 7.3102655 0.14141028 0.100393236
000210 b5 51 b3 3e ab 9f fb 3e 88 ee 86 bd 80 10 1a 3b
       0.35023275 0.49145254 -0.06588465 0.002350837
000220 6c c5 34 3f a4 97 28 bd 2a a1 96 40 d5 9e 9d 3e
       0.7061374 -0.04116024 4.7071733 0.30785242
000230 39 12 be 3d 00 35 7b 3a 7d 7a 0d bc 80 14 9b 3d
       0.092808194 0.0009582788 -0.0086351605 0.075722694
000240 6a e0 0c bd 5e 19 4b 3c 51 1e 63 3d c8 96 6a 3d
       -0.034393705 0.012396185 0.055448834 0.057272702
000250 16 07 aa bd 7b ee c7 40 3b e2 d7 3d a0 ec b2 3e
       -0.08302133 6.2478614 0.10541197 0.34946156
000260 a9 9c b2 be 44 62 9b 3d 07 e0 09 be aa b4 b0 bd
       -0.34885147 0.07587102 -0.13464366 -0.08628209
000270 90 bf 86 3c 1a 7a 97 3d 7e f6 3c bf 33 a3 a4 3e
       0.016448766 0.07396336 -0.7381362 0.3215576
000280 29 46 97 3d a4 66 53 3d ab d1 af 3e a9 b3 23 3c
       0.07386429 0.051611558 0.3433965 0.009991565
000290 50 54 48 3e 1d 3d 74 bf 5e 6e cd bb 22 0e 88 bd
       0.19563413 -0.9540575 -0.0062692603 -0.066433206
0002a0 d1 4a b7 3d 61 53 d1 3d 38 a3 33 3d 47 97 db 3e
       0.08949817 0.102209814 0.04385683 0.42888853
0002b0 3c 7f 6a bd d4 ba 9f be bb d1 d9 3e 6a bc b5 bd
       -0.057250246 -0.31197226 0.42542824 -0.08873828
0002c0 c0 fe bc bd d0 c4 ca bc 08 21 59 c0 30 91 ce 3c
       -0.09228277 -0.02475205 -3.392641 0.025215715
0002d0 d8 3c 92 be 3b 3a 35 3e 6c 61 fc bd 4a 13 78 be
       -0.28562045 0.17697994 -0.12323269 -0.24226108
0002e0 c3 30 12 3e 00 88 fc 3b 00 04 20 3d 35 2d ae 3e
       0.14276414 0.007706642 0.039066315 0.34018865
0002f0 36 cb 10 3d b0 6a f2 bc 71 c4 2c bd 08 40 4e 3f
       0.035350047 -0.029591888 -0.04217953 0.80566454
000300 2a f3 10 bf 57 b5 1e 40 a1 2f 00 bf 14 00 c8 3d
       -0.5662104 2.479818 -0.50072676 0.0976564
000310 a6 0a cd 3e b4 ff 2e 3f 18 a0 10 bb 10 59 8d 3c
       0.40047187 0.6835892 -0.002206808 0.017254382
000320 4e 27 66 3f f0 c7 ae bd b8 dd ec 3e 55 a7 13 bf
       0.89903724 -0.08534229 0.46262908 -0.57677203
000330 78 43 c9 bd b3 a8 01 bc 9e c3 12 bd e7 bb d5 3d
       -0.09827322 -0.007913756 -0.035831086 0.1043623
000340 a4 38 0f be 45 d9 28 bd be 4d cd 3e c6 eb 85 3d
       -0.1398645 -0.04122283 0.40098375 0.06539111
000350 f7 7e d5 bc 45 c8 2a 40 af ff b5 bb f0 7c 67 3e
       -0.026061518 2.6684735 -0.0055541615 0.22606254
000360 87 35 0d 3d 36 a8 ec bd df bb 5e be 48 b1 62 bd
       0.034474876 -0.11555521 -0.21751355 -0.05534485
000370 76 b3 be 3d 29 a1 c0 bd e1 89 9b 3e 0a 48 f6 3e
       0.09311573 -0.09405739 0.3037863 0.48101836
000380 a4 10 7b bd e4 17 d4 3d a1 f8 b7 3e 20 1a a8 bd
       -0.061295167 0.10356119 0.35931876 -0.08208108
000390 34 ed d7 3e 3d 84 27 3e 05 f1 d8 bd 73 5f cb 3b
       0.4217316 0.16359039 -0.10592846 0.006206447
0003a0 31 db 7a 3d 7c 42 fc bc 8b 03 da 3c 3d 17 fc 3e
       0.061244193 -0.030793421 0.026613018 0.4923648
0003b0 e2 b1 85 bd a0 63 47 3f 88 b6 ca 3e aa b6 49 3c
       -0.06528069 0.7788639 0.39592385 0.012311617
0003c0 d0 86 2a 3d aa 10 8f bd 05 58 3d 3f f4 98 d4 bd
       0.041632473 -0.069856 0.7396243 -0.10380736
0003d0 5e 93 8a 3d 7d 3d 86 be 41 22 f6 bb 7e ef 28 be
       0.06766389 -0.26218787 -0.0075114076 -0.16497609
0003e0 16 ec f0 3e 74 9c 35 3d e1 e6 4f bd f8 e7 1d 3f
       0.4705512 0.04433866 -0.050757293 0.6168208
0003f0 4a af f9 bd 88 ec ff bd 6a 6d 06 bb d5 e0 36 3f
       -0.12191637 -0.12496287 -0.0020511993 0.71436816

fc3.bias f4 [4]
000000 92 0e 39 3f 1a de ae 3d 39 78 59 3f a9 b7 48 3f
       0.7228786 0.08538456 0.8494907 0.78405243
