pgr_goal_full_empty/checkpoint.pth (torch, 2591 bytes, 4 tensors)

fc1.weight f4 [32, 4]
00000000: 8070 f63e 7302 4e3e 8d99 39be be7b e9be
00000010: a055 cfbe 30c3 d9bd 3a77 ca3e 5cb5 edbe
00000020: 803c 90be fad9 8b3d 18b0 89be 00b5 f7bc
00000030: 8011 97bc 781e d23e cc9d 56be 1454 24be
00000040: 6663 ffbe 0dd6 0d3d 9458 e33e 6cdc 0dbe
00000050: 74fc 95be 6480 ef3b adcc 303e 001b da3d
00000060: 6820 a43e 10cf a2be 9009 9e3e 38cd febd
00000070: a082 8abc 04b8 5ebe 1a24 dfbe ee4b 83be
00000080: 4402 1dbe 801c f9bc 7ca0 52be 7055 c4bd
00000090: 2cd9 1cbe 1a5c 853e 627f 9f3d 78b9 413e
000000a0: 1e44 e6be e946 643e 6eb4 f1be 94dc c33e
000000b0: d0e5 353d 1dc3 3d3e 4496 e2be 80cc d1bd
000000c0: 581f a73d 5c71 c53e c07f e2bc c02a 1fbe
000000d0: 006c 193a c21c d33d 7883 a5bd 3452 a6be
000000e0: 003c 8eba 1c89 09be 760c d83e b4f5 483e
000000f0: 586b d6be 4af6 98be 875c a4bc c800 aabe
00000100: 0095 ffbb 4e64 bf3d a6ca ef3d 807e 953e
00000110: fcc1 7abe fc30 a6be 80bf adbd ac18 2cbe
00000120: 3643 e8be 8717 8f3c 46b1 bfbd 44be d9be
00000130: 106a 8b3d 809d 70bc 8b05 5c3e 1656 bcbe
00000140: b89c 7a3e 9397 063e 16b6 ccbe 58ff c23d
00000150: a675 97be f2ab 87be f0fd 933d aea1 c0be
00000160: a035 98be 4cf5 ea3e d48f e63e d89c b93e
00000170: c066 e5be f666 e13e 14e5 1bbe 5686 c4be
00000180: 0e3a b43e f8c8 57be 3fd6 67be a447 553e
00000190: 283d 033e dcae dabe 32f0 cabe 40dc 6ebd
000001a0: 3cc7 4ebe a071 febd fa5e c6be c0d0 133c
000001b0: 7c84 c03e f385 733d d5c7 053e 3048 b4be
000001c0: 1490 103e 00f3 823b f075 f2bd 4c6e 413e
000001d0: 8037 cc3d 4861 e3be 7c39 37be 7a0f b2be
000001e0: 50d5 9a3e a1e4 643e 53d9 4dbd 4089 3abd
000001f0: ae8c dd3e 3431 6cbe 44d3 7f3e 50d3 16bd
0.48132706 0.20118122 -0.18124981 -0.4560222 -0.40495014 -0.10632932 0.39544088 -0.4642743
-0.28171158 0.06828685 -0.2689216 -0.030237675 -0.018440962 0.4103887 -0.20958632 -0.16047698
-0.49880522 0.034627963 0.44403517 -0.13853616 -0.2929417 0.0073090065 0.17265578 0.10649681
0.32055974 -0.317986 0.3086667 -0.12441486 -0.01690799 -0.21749884 -0.4358223 -0.25643867
-0.15332896 -0.030409098 -0.20569032 -0.095866084 -0.1531722 0.2604683 0.07787968 0.18918407
-0.44973844 0.22292675 -0.4720797 0.38254225 0.04440862 0.18531461 -0.4425527 -0.102440834
0.08160275 0.3856305 -0.027648807 -0.15543652 0.000585258 0.103082195 -0.08081716 -0.3248459
-0.0010851622 -0.1343121 0.42197007 0.19624978 -0.41878772 -0.29875404 -0.020063652 -0.3320372
-0.0077997446 0.093453035 0.11708574 0.29198074 -0.24488062 -0.32459247 -0.08483791 -0.16806287
-0.45363778 0.017467273 -0.09359984 -0.42527974 0.06807339 -0.014685988 0.2148649 -0.36784428
0.24473846 0.13143758 -0.3998267 0.09521359 -0.29581946 -0.2649837 0.07226169 -0.37623352
-0.29728413 0.45890272 0.45031607 0.36252475 -0.44804955 0.44023865 -0.15224105 -0.3838374
0.35200542 -0.21072757 -0.22640322 0.2082811 0.12816298 -0.42711532 -0.3963638 -0.058315516
-0.2019319 -0.12424016 -0.38744336 0.009021938 0.37601078 0.059453916 0.13064511 -0.35211325
0.14117461 0.003996253 -0.11838901 0.18889731 0.09971523 -0.44410157 -0.17893022 -0.34777433
0.3024087 0.2235284 -0.050256085 -0.045541048 0.43271393 -0.23065645 0.24982935 -0.036822617

fc1.bias f4 [32]
00000000: 823e bc3e 54c5 fbbe f401 e93e 1808 9dbe
00000010: 1a85 8d3e 11d7 1dbe 0615 f2be 985e 0c3e
00000020: 0026 6cbc 8e5c c13e 3f7d 22be c055 f9be
00000030: 0ea7 07bc 5498 8cbe d55a 793e 19c2 b23c
00000040: 537f 7c3e 108a 88be fe5c c23e 6d3d 0fbe
00000050: 0057 d6be 20ab 4fbe 4bad 3c3e 8e99 93be
00000060: deea 833e 9a6e 9ebe 3c1a 513e 34f6 ac3e
00000070: d83e b5be 6060 b1bc d615 a43e b0f3 95be
0.3676644 -0.49173987 0.45509303 -0.30670238 0.2764061 -0.15414073 -0.47281665 0.1370796
-0.014413357 0.37765926 -0.1586809 -0.48698235 -0.008279575 -0.27459967 0.24351056 0.021821069
0.24657945 -0.26667833 0.37961572 -0.13988276 -0.4186325 -0.20280123 0.18425481 -0.2882809
0.25765127 -0.30943757 0.20420164 0.33781588 -0.35399508 -0.0216524 0.3204791 -0.2928748

fc2.weight f4 [4, 32]
00000000: 2b96 32be c090 5b3d 9c96 ec3d 3c72 e33d
00000010: 4af0 14bb d2b5 c6bd 8141 32be 6796 c8bd
00000020: 207e 9d3b 0644 293e d42a 133e 68c9 a63d
00000030: ab8d 6bbd d482 053e 707a 18be 1139 5cbd
00000040: c767 b63c 568e f53d c8ea 8d3d f64e cebd
00000050: 2743 25be b0cb 193c ab09 213d 2963 32bd
00000060: 4cce 923d c049 1d3b 2a65 ab3d d06c e83d
00000070: 30c3 34bd b0c5 c63c 1731 333d f5b1 103e
00000080: 4ee0 54bc d660 2cbe 3ab6 1abe 7cd7 1e3e
00000090: 033a 45bd 5584 3e3d 5567 cdbd ce90 97bd
000000a0: c8a4 fabc 1c44 0ebe df5b c2bc ab33 1fbe
000000b0: 7a39 113e 2480 ab3d 07a6 623d d904 c7bc
000000c0: 7858 b53d b106 22be e463 b33b 1bfb 25be
000000d0: 3081 953d fd9a 0b3e 40fa fbbd b4ad fb3d
000000e0: 8841 0c3e 2fbf 043e b4c9 6a3d 93b2 4dbd
000000f0: 3b62 16be e83c 55bd 5eef c0bd 1fcc 1a3e
00000100: c3c0 10be 1803 673d c79d 03be 54cc 993d
00000110: 7a6d 223e 684e cc3d bc00 1dbe 4ff2 84bd
00000120: a21b 69bd d9ec 7ebd 28a8 d83d 6881 23be
00000130: 302c be3d 17cb e8bc e821 153e ce1c 1f3e
00000140: 7051 e33d 1073 803c 9d3f 6c3d beb7 2c3c
00000150: e838 0fbe a6fb d73d 0d19 283d 9f92 f3bd
00000160: ca51 07be 50e3 bebc bf31 94bd c315 27be
00000170: 6936 fdbd 1548 80bd 3f97 4fbd 919d 333e
00000180: 2d34 3c3d 4a21 6abd ea46 303e 5cc3 313e
00000190: c4dc fd3d 6e67 d4bd a054 46bd d1eb 303e
000001a0: aef8 e43d 7247 35be bfb3 aebc b277 2a3e
000001b0: 2861 b2bd 4900 373b be6f 7bbc 3c3a 2f3e
000001c0: 302e 043e 7ebd 9e3d 951e 98bd 7bbc 15bd
000001d0: 4118 c8bd caee 62bd f6b3 173e 1a8f 32be
000001e0: a71b cfbc 82a5 803d b874 203d 727d ffbd
000001f0: 509a a93c 0fd3 1b3e 3400 ce3d 496e 32be
-0.17440097 0.05360484 0.11552164 0.11105773 -0.0022726231 -0.09702648 -0.174078 -0.09794312
0.004806295 0.16529855 0.14371806 0.08143884 -0.057508152 0.13038188 -0.14890456 -0.05376536
0.022266282 0.11990039 0.069295466 -0.10073654 -0.16138898 0.009386942 0.03931586 -0.043551598
0.07168254 0.0024000257 0.08368905 0.11348879 -0.044131458 0.024264187 0.043747988 0.14130385
-0.0129929315 -0.16833815 -0.15108576 0.15511888 -0.048151027 0.04651292 -0.10029475 -0.07400666
-0.030596152 -0.13893169 -0.023725448 -0.15547054 0.14182082 0.0837405 0.055334117 -0.024294304
0.08854765 -0.15822865 0.0054745544 -0.1620907 0.07300031 0.13633342 -0.12303591 0.122889906
0.13696873 0.12963556 0.057321265 -0.05021913 -0.1468591 -0.052060038 -0.09420656 0.15116929
-0.14136033 0.056399435 -0.12853156 0.075096756 0.15862074 0.09975892 -0.15332311 -0.06491529
-0.05691112 -0.062237594 0.10578948 -0.15967333 0.09285772 -0.028417153 0.14563715 0.15538332
0.11099517 0.015679866 0.057677854 0.010541854 -0.13986552 0.10546045 0.041039515 -0.118932
-0.13214794 -0.02330175 -0.07236051 -0.16316895 -0.123638935 -0.062637486 -0.05068135 0.17540576
0.045948196 -0.057160653 0.17214552 0.1735968 0.12395623 -0.1037129 -0.04842055 0.17277457
0.111802444 -0.17703035 -0.021325944 0.16647223 -0.08709937 0.0027923754 -0.015346466 0.17112058
0.12908244 0.077509865 -0.07427708 -0.036556702 -0.09770251 -0.05540351 0.14814743 -0.17437401
-0.02528174 0.06281568 0.03917381 -0.12475099 0.020703465 0.15217231 0.100586325 -0.17424883

fc2.bias f4 [4]
00000000: e1cf 2bbd 7787 33bd e9dc b93c 0e4f 0ebe
-0.041946296 -0.04383036 0.022688346 -0.13897344
