pgr_goal_full_empty/checkpoint.pth (torch, 2591 bytes, 4 tensors)

fc1.weight f4 [32, 4]
0.63406366 0.4073452 0.21153733 0.15338598 0.4939512 -0.8268035 0.33499712 0.13905805
0.5762817 -0.42071056 0.62642145 0.051144063 -0.0077012777 -0.273409 -0.49040204 0.2823106
-1.1193246 0.39505538 -0.31599152 -0.20892315 -1.4021239 0.18975021 0.27893835 -0.34605098
0.02627724 -0.14644855 0.064215876 0.49511206 0.2801526 0.28026748 -0.17278987 -0.009295486
0.7938696 0.47203588 -0.12772459 0.5794688 -0.966632 0.23453636 -0.008545834 0.11130058
-0.25662047 -0.4076054 -0.21567735 -0.30640483 0.11283066 -0.21475145 -0.018861478 0.01106745
-0.2279854 -0.4005103 -0.051120616 0.07876718 -1.3704238 0.47970432 -0.2921224 -0.17666653
-0.074027 -0.14872867 -0.2711466 0.07107997 1.2724484 0.25116822 -0.6003034 0.18428798
0.014393297 0.23527935 0.4580293 -0.47708696 0.89657724 0.23018074 -0.14325884 0.21023864
0.2189694 0.32812646 -0.57572335 -0.01698842 -1.358876 0.36821473 -0.22813028 -0.102659225
0.46286634 -0.6817786 -0.13503006 0.47173268 -0.16211426 -0.39691204 -0.14646143 0.2603783
0.11065052 0.16048208 -0.509997 -0.018807705 -1.3226866 0.2755172 0.21802577 -0.16660371
1.0356637 0.24157204 -0.5286471 0.19637685 0.2747475 -0.2679205 -0.038166463 -0.43863064
0.48952734 -0.2047906 -0.6511353 0.3155406 -0.9839156 0.040558767 0.80313075 -0.08018301
-0.026559105 -0.6582552 0.32204762 -0.13289225 -0.056471467 -0.10048717 -0.109301865 -0.43050426
-0.19289622 0.12104881 0.43714416 -0.38497987 1.1278054 0.25067255 -0.045395292 0.5579274
00000000: ff51 223f 8d8f d03e 3e9d 583e 3711 1d3e
00000010: 2ce7 fc3e 65a9 53bf be84 ab3e 3c65 0e3e
00000020: 3387 133f 6067 d7be 285d 203f 707c 513d
00000030: 005b fcbb 44fc 8bbe fa15 fbbe 048b 903e
00000040: 0746 8fbf b344 ca3e a4c9 a1be f3ef 55be
00000050: cc78 b3bf e14d 423e 02d1 8e3e 982d b1be
00000060: 5e43 d73c 9cf6 15be 9d83 833d 547f fd3e
00000070: 2970 8f3e 387f 8f3e d4ef 30be 184c 18bc
00000080: 0a3b 4b3f b0ae f13e 3cca 02be 1158 143f
00000090: 3275 77bf 4d2a 703e d303 0cbc 8ff1 e33d
000000a0: c263 83be a8b1 d0be 86da 5cbe 18e1 9cbe
000000b0: c313 e73d cee7 5bbe 6383 9abc 4054 353c
000000c0: 0175 69be b00f cdbe da63 51bd b050 a13d
000000d0: 0c6a afbf ce9b f53e 1191 95be 12e8 34be
000000e0: 789b 97bd 544c 18be bad3 8abe 6092 913d
000000f0: 97df a23f 1f99 803e 7cad 19bf fdb5 3c3e
00000100: ddd1 6b3c 12ed 703e d182 ea3e be44 f4be
00000110: 1686 653f 80b4 6b3e 72b2 12be cc48 573e
00000120: 8439 603e 3100 a83e 9b62 13bf 4d2b 8bbc
00000130: a6ef adbf a486 bc3e fc9a 69be 003f d2bd
00000140: d1fc ec3e 0b89 2ebf 5245 0abe f286 f13e
00000150: 4801 26be 0e38 cbbe fcf9 15be 4e50 853e
00000160: bd9c e23d 6a55 243e 2a8f 02bf 9e12 9abc
00000170: cb4d a9bf 9710 8d3e 2642 5f3e 2a9a 2abe
00000180: a190 843f a95e 773e 6b55 07bf 0317 493e
00000190: b4ab 8c3e e02c 89be 7054 1cbd 3294 e0be
000001a0: 54a3 fa3e a1b4 51be ceb0 26bf 8a8e a13e
000001b0: e5e1 7bbf f320 263d fa99 4d3f fd36 a4bd
000001c0: 7b92 d9bc 6a83 28bf 6de3 a43e e814 08be
000001d0: a04e 67bd 38cc cdbd a8d9 dfbd 0e6b dcbe
000001e0: 9686 45be 70e8 f73d 5cd1 df3e 151c c5be
000001f0: ed5b 903f 2758 803e 6af0 39bd 55d4 0e3f

fc1.bias f4 [32]
0.013439257 0.36325213 -0.16832069 -0.35040456 -0.23513922 0.62170947 -0.0982953 -0.15196623
-0.42138037 -0.027546316 0.20514342 -0.104745336 0.048564687 0.24759585 -0.048249006 0.043713182
0.35168928 -0.4239241 0.31172803 -0.049012415 0.146416 -0.43513995 0.3301336 0.33870417
0.07593317 -0.41276222 0.20621434 0.94838774 0.60474163 -0.044187546 0.055769783 -0.16831592
00000000: 5430 5c3c 2ffc b93e 425c 2cbe 3a68 b3be
00000010: 56c8 70be 5a28 1f3f 0c4f c9bd 099d 1bbe
00000020: 2bbf d7be d0a8 e1bc 1e11 523e b984 d6bd
00000030: c4eb 463d c489 7d3e c0a0 45bd 980c 333d
00000040: 9e10 b43e 940c d9be d19a 9f3e 3ec1 48bd
00000050: 13ee 153e aaca debe 4507 a93e a26a ad3e
00000060: da82 9b3d 9255 d3be da29 533e 8ac9 723f
00000070: 59d0 1a3f 00fe 34bd db6e 643d 025b 2cbe

fc2.weight f4 [4, 32]
-0.3689762 -0.08815 0.12179875 -0.098007776 -0.16518435 -0.38998854 -0.093271025 -0.2847498
-0.26278752 -0.047100287 0.07966577 0.020635339 0.004196691 -0.17600517 0.0042567253 -0.2805436
-0.44088584 -0.08442613 -0.18900742 -0.13718349 0.12583421 0.0424553 -0.21652538 -0.27059895
-0.31522223 -0.049300835 -0.18985835 -0.19929916 -0.15759653 0.041696995 -0.24368927 -0.29745847
-0.08409672 0.35717252 0.368644 0.0557355 0.27712366 0.7404707 -0.06876519 -0.046234477
-0.24153417 0.46757764 0.04840691 -0.0657223 0.0825692 0.3736697 -0.08315997 -0.24576585
0.2578212 -0.13533783 0.044154663 0.3597689 0.19654545 0.10529782 0.035612166 0.38049468
-0.18460721 -0.002842471 -0.101231545 0.99296594 0.36173502 -0.060924657 0.10785593 -0.0658309
0.08176417 -0.47183475 -0.36670202 0.058572993 -0.2009378 -0.8320345 -0.010916621 0.07872509
0.3464409 -0.38999203 -0.017717512 -0.02978843 -0.23120844 -0.11176704 0.14164965 0.53469
0.142767 0.44695005 0.17555022 -0.28742594 -0.29345852 -0.12934801 0.11745098 -0.25120333
0.49131796 -0.012378424 0.14193557 -0.9947394 -0.50388 0.14592831 0.008363826 0.5379607
-0.19864331 0.13649717 0.2143823 0.011646122 -0.09251865 0.043915883 -0.061976086 -0.30628276
-0.15370981 0.013980807 -0.03698009 0.026910948 -0.040479913 -0.24781133 0.037812427 -0.25444886
-0.12509468 -0.054703787 -0.25232267 -0.04169411 -0.08729343 -0.034308106 -0.3204385 -0.01238953
-0.26941225 0.09111427 0.12613857 -0.18312353 0.33823767 -0.09121895 -0.06748454 -0.01214025
00000000: 73ea bcbe fd87 b4bd 9f71 f93d 4db8 c8bd
00000010: 1626 29be 94ac c7be e104 bfbd baca 91be
00000020: 168c 86be 3bec 40bd cf27 a33d 710b a93c
00000030: 6584 893b b33a 34be 007c 8b3b 69a3 8fbe
00000040: cabb e1be 9be7 acbd 298b 41be d479 0cbe
00000050: afda 003e 9ce5 2d3d d4b8 5dbe f28b 8abe
00000060: cf64 a1be acef 49bd 3a6a 42be 1415 4cbe
00000070: fc60 21be 78ca 2a3d ae89 79be 7a4c 98be
00000080: e73a acbd 51df b63e e8be bc3e e84a 643d
00000090: 27e3 8d3e 7d8f 3d3f c4d4 8cbd 5d60 3dbd
000000a0: bc54 77be 5666 ef3e 5346 463d 6a99 86bd
000000b0: 0a1a a93d a351 bf3e c64f aabd 0baa 7bbe
000000c0: 2401 843e 0096 0abe 85db 343d a133 b83e
000000d0: 3643 493e 62a6 d73d 10de 113d 33d0 c23e
000000e0: ac09 3dbe c048 3abb 7c52 cfbd 0433 7e3f
000000f0: 5535 b93e 228c 79bd 92e3 dc3d 5ad2 86bd
00000100: f973 a73d 5394 f1be 5ec0 bbbe 3cea 6f3d
00000110: a3c2 4dbe 3700 55bf a1db 32bc 9f3a a13d
00000120: b460 b13e 09ad c7be 5124 91bc de06 f4bc
00000130: e8c1 6cbe 1ee6 e4bd 9b0c 113e 72e1 083f
00000140: 8331 123e a3d6 e43e 70c3 333e 7e29 93be
00000150: 3240 96be ce73 04be 248a f03d b99d 80be
00000160: 078e fb3e e0ce 4abc 8f57 113e 3ea7 7ebf
00000170: 48fe 00bf 3b6e 153e 6e08 093c cbb7 093f
00000180: 2769 4bbe eac5 0b3e 0987 5b3e 60cf 3e3c
00000190: 6b7a bdbd 24e1 333d a3da 7dbd 18d1 9cbe
000001a0: 1b66 1dbe c10f 653c 6f78 17bd 5974 dc3c
000001b0: 44ce 25bd 41c2 7dbe 34e1 1a3d 1f47 82be
000001c0: d218 00be 1411 60bd 7030 81be 71c7 2abd
000001d0: e6c6 b2bd a886 0cbd 8410 a4be 75fd 4abc
000001e0: 67f0 89be 1e9a ba3d 782a 013e bc84 3bbe
000001f0: 7d2d ad3e 00d1 babd 5635 8abd e6e7 46bc

fc2.bias f4 [4]
-0.4497051 0.4267092 -0.1321883 -0.19578612
00000000: bf3f e6be a179 da3e 5f5c 07be 287c 48be
