dqn_goal_full_empty/run-demo/checkpoint.pth (torch, 21285 bytes, 6 tensors)

fc1.weight f4 [64, 4]
000000 36 bb 7d bf ff 99 f4 3e 16 b3 d2 be 57 65 90 bf
       -0.99113786 0.4777374 -0.41152257 -1.1280926
000010 fc e0 af bf 23 c4 02 3e 73 da 8e 3e f7 fc 1b 3f
       -1.3740535 0.12770133 0.2790104 0.6093287
000020 9b a1 aa 3e 1c 2d f8 3e ac bb 1a be 1c 2e 9d 3d
       0.3332642 0.48471916 -0.15110654 0.0767481
000030 b8 91 f4 be 52 8b a9 be e8 0e 53 be 00 bb 97 3c
       -0.47767425 -0.33114105 -0.20611155 0.018521786
000040 62 96 17 be 28 93 3c 3f 5c 39 f0 be df de da 3e
       -0.1480346 0.7366204 -0.46918762 0.42748162
000050 df 77 a1 3f a7 ba 85 3f 62 ed 62 3d ac 11 2c 3f
       1.2614707 1.0447587 0.055402167 0.67214465
000060 de 51 e9 bf 4c bf 96 3e be ed 6c 3e 53 4b 27 bf
       -1.8228109 0.29442823 0.23137566 -0.6534931
000070 29 1b 23 be fc b8 1f be 19 ff dd be e2 88 15 3f
       -0.1592833 -0.1559791 -0.43358687 0.5841199
000080 1a ef a5 be c0 b0 6b be 1a da b2 be 76 c2 ef be
       -0.32408983 -0.23016644 -0.34932023 -0.4682805
000090 b8 57 ad bf 2f fb 07 3f 0d b0 12 3f ca ff 81 3e
       -1.3542395 0.5311765 0.5729988 0.25390464
0000a0 40 6a d7 3c 3a 3f 83 be c0 3e ad 3d 9e 06 ef be
       0.026295781 -0.25634176 0.08459234 -0.46684736
0000b0 a3 4e ea 3e 65 eb 6a be fa be e1 3d 50 07 87 3e
       0.4576312 -0.22941358 0.11022754 0.26372766
0000c0 d0 ea 86 3f b9 dc 0f 3e d1 dc 94 3d 1d 49 68 3f
       1.0540409 0.14049043 0.0726868 0.9073656
0000d0 91 cf 75 be 63 96 64 3e 46 ef 8b 3d a6 ee 00 bf
       -0.24004962 0.22322993 0.06832747 -0.5036415
0000e0 f8 d0 be 3d 6c 7a c6 be 18 6e b1 be d2 3e 84 be
       0.093172014 -0.38765275 -0.34654307 -0.25829178
0000f0 69 43 37 3f 78 fe b2 3e 6a a4 97 be ef 97 d4 3e
       0.71587235 0.3495977 -0.29617625 0.41522166
000100 6e 89 8c 3e 20 3f 81 bd 40 64 9c 3c 00 44 ed 3d
       0.274486 -0.06310868 0.019090772 0.115852356
000110 0a 41 99 be 55 02 2f 3f df cd b1 be 1b 90 cc 3f
       -0.29932433 0.68362933 -0.3472738 1.5981477
000120 ed 21 32 3f 1f 6b 74 3f 33 44 41 3f 23 80 8f bf
       0.69583017 0.95475954 0.7549469 -1.1210979
000130 78 ca cb 3d f8 9c de be 90 66 3c 3d ac 27 a0 be
       0.09950727 -0.43479133 0.04599625 -0.31280267
000140 d1 18 ad bf 77 70 34 3f 36 48 28 3d e4 66 04 be
       -1.3523198 0.7048411 0.04108449 -0.12929875
000150 08 aa bf 3d c8 80 ac bd b8 82 a8 bd 1c 5f 6a be
       0.09358603 -0.084230006 -0.082280576 -0.22887844
000160 9d 81 88 3f 76 0c a4 be 52 8d b1 3d da cb 06 3e
       1.0664555 -0.32040757 0.08669533 0.131637
000170 67 4b cd 3f 31 6c 26 3f b6 67 e3 be 5e 3e 18 bf
       1.6038636 0.65008837 -0.44415063 -0.59470165
000180 d9 8a bb 3f b8 a7 4d 3e 76 d0 b0 be 9b 87 91 bf
       1.4651748 0.20083511 -0.34534043 -1.1369509
000190 9f cd 56 3f 0a 95 18 3f b0 3e 5f be 57 c9 3e 3e
       0.839075 0.59602416 -0.21801257 0.18631493
0001a0 78 dd f3 be 80 3e 13 bc 78 c8 c0 be a2 77 c5 be
       -0.47629905 -0.008987069 -0.37652946 -0.38567835
0001b0 36 2c 42 3f a8 48 e9 3e 74 91 87 bd f3 5d 21 3f
       0.7584871 0.45563245 -0.0661954 0.6303398
0001c0 13 88 e5 bf 8b 5d ce 3e b9 bb c3 bd 81 0a 8b 3d
       -1.7932152 0.40305743 -0.0955729 0.06789113
0001d0 03 38 97 3f b2 c0 d7 3c 5e 27 8f be e0 71 a1 3d
       1.1813968 0.026337001 -0.27959722 0.07883048
0001e0 a3 cd 29 3f 03 68 42 3e cc d1 79 be b1 e4 a9 3e
       0.663294 0.1898499 -0.24396437 0.3318229
0001f0 7a 29 1d 3e c2 9e 81 be 9e ad 25 3d ec 66 79 be
       0.15347853 -0.25316435 0.040448777 -0.24355668
000200 5c 1d 33 be ba d2 d1 be 00 d2 d9 bd f8 e2 da 3d
       -0.17491668 -0.40981084 -0.106357574 0.10687822
000210 da 18 23 bf 8d 2e 42 be 05 06 d9 3e f0 88 52 bd
       -0.63709795 -0.1896307 0.42387405 -0.051400125
000220 80 ac 63 3c c0 ad 30 bd 10 3d cf 3d 60 c6 a2 3e
       0.013896108 -0.04313445 0.101190686 0.31791973
000230 da 6f 71 3f 04 5f 83 3f 21 46 3d 3f a6 a2 5a 3d
       0.94311297 1.0263371 0.73935133 0.05337777
000240 04 31 3e bf 96 df 9b be 8d 00 9f 3e 00 6b 54 bb
       -0.7429354 -0.3044402 0.31055108 -0.003241241
000250 dc 7c 7e be 02 2d c4 be 00 94 ef be ec 10 d8 be
       -0.24852318 -0.38315588 -0.46792603 -0.4220041
000260 e6 7b 76 bf 27 e7 19 3f d5 2d 83 be 2e 19 84 be
       -0.96282804 0.60118335 -0.25620905 -0.2580046
000270 2e b0 9f 3e 8a 52 c8 be f0 7b d8 bd 1c 9a 4f be
       0.31189102 -0.39125472 -0.10570514 -0.20273632
000280 72 08 3d 3f b0 ac 00 bd 29 e5 f0 be f8 ef 5a bf
       0.7384101 -0.031414688 -0.47049835 -0.85522413
000290 28 3c a0 bd 80 e1 d3 3b b8 96 68 be b8 de 40 3e
       -0.07823974 0.0064660907 -0.22713745 0.1883496
0002a0 c1 94 3d bf 9e 90 66 be 0f 12 9b 3e 38 d7 50 be
       -0.74055105 -0.22516105 0.30287215 -0.203946
0002b0 73 c3 9b 3f d5 e4 4e 3e ae 07 e7 be 14 02 ed 3e
       1.2169021 0.2020448 -0.45123047 0.46290648
0002c0 2f a8 84 3f 51 24 45 be 31 41 80 3f 98 f5 e8 be
       1.0363826 -0.19252135 1.0019895 -0.45499873
0002d0 85 71 26 3f df 2b 4d 3d a4 5b ea 3e 4b e5 50 3e
       0.6501697 0.050090667 0.4577304 0.20399968
0002e0 82 6a aa bc 1b 39 26 3f ba 85 44 bf 6a 5f e8 be
       -0.02080274 0.64930886 -0.7676655 -0.45385295
0002f0 d2 41 d9 bf 63 c7 64 3e c0 98 30 3f 26 f7 de 3e
       -1.6973212 0.22341685 0.6898308 0.43547934
000300 5f 8e fe bf 22 b2 8c 3e 74 cf ec be 4c 69 bb be
       -1.9887198 0.27479655 -0.46252024 -0.36603773
000310 79 26 e2 bf c5 f6 a3 3e c4 8d 98 be fc a5 a5 be
       -1.7667991 0.32024208 -0.2979566 -0.323532
000320 e6 fa 60 bf 0b 9d 06 3f a9 81 e8 be 5c 3d c5 bd
       -0.8788284 0.5258338 -0.45411423 -0.09630844
000330 58 b3 d4 bf 17 aa 3e 3e 9d 18 8f 3e 47 86 78 3f
       -1.6617231 0.18619572 0.27948466 0.9707989
000340 b9 74 6e bd 29 6e a1 3e 60 e2 b3 3d a0 ac 17 3d
       -0.058216784 0.31529358 0.08783412 0.037029862
000350 40 7a 80 3d 30 d3 e9 bd 00 3e 66 bb c0 a7 82 3d
       0.06273317 -0.11417234 -0.003513217 0.06379652
000360 98 3e c8 be 7a 2d 86 be d8 b7 ce 3e 86 c1 cf be
       -0.39110255 -0.2620657 0.40374637 -0.40577334
000370 7f 46 b1 bf d0 b3 00 3f 77 1a 06 3d bb 70 de 3d
       -1.3849639 0.5027437 0.032740083 0.108613454
000380 7d a8 dc bf d3 21 44 3e d7 bd a0 be 69 11 e2 be
       -1.7238919 0.19153528 -0.31394836 -0.44153908
000390 cc c8 2b be 38 a4 97 bd 80 36 b3 3b 96 26 d3 3e
       -0.16775817 -0.07404369 0.0054691434 0.41240376
0003a0 6a 34 11 bf 88 9f fc 3e 7f dc 96 3e e7 eb 1f be
       -0.567206 0.49340463 0.294651 -0.15617333
0003b0 27 b3 3c 3f fb 83 e0 bd 5e dd f1 be 0d 47 d5 3d
       0.73710865 -0.10962673 -0.47239202 0.104139425
0003c0 5c 95 62 3e 6c 3f 63 3f 71 92 1e be c4 2c 8b 3e
       0.22127289 0.8876865 -0.1548555 0.2718259
0003d0 9d f6 ae 3f 7f 00 8c be 90 d7 68 3f c2 ff d8 be
       1.366901 -0.27344128 0.9095392 -0.42382628
0003e0 3e 5e 17 3f 9c bf 14 3d 28 45 8d be 51 83 2a 3e
       0.5912818 0.036315545 -0.27591825 0.16651656
0003f0 ca 0e 82 3f aa 7d aa 3d 56 fc 97 be 9d 1c 50 be
       1.0160763 0.0832475 -0.29684705 -0.20323415

fc1.bias f4 [64]
000000 9c 27 21 be 87 3c d6 3e 28 e9 92 be d0 d6 aa be
       -0.15737766 0.41843054 -0.2869351 -0.33367014
000010 b5 92 65 3f 27 68 09 40 68 62 1f 3f 9f 1a 91 3f
       0.8967698 2.146982 0.6225953 1.1336249
000020 d8 b6 39 3e 8c 73 8e 3d d4 13 0f be 6b 45 ac 3f
       0.18136156 0.069556326 -0.13972408 1.3458685
000030 1f 9b d0 3f 51 1d 8d 3f 1c 40 72 be 93 c5 f8 be
       1.6297339 1.1024572 -0.23657268 -0.48588237
000040 42 0a f2 be 5e 48 8c 3f eb 0e e5 3f 50 3e e4 be
       -0.4727345 1.0959585 1.7895178 -0.4457879
000050 12 fe 88 3f d0 3f a6 be ba fd 90 3f 92 a9 a2 3f
       1.0702536 -0.3247056 1.1327431 1.2707999
000060 c9 7c 03 3f 5f fe 01 bf 2c ee ce be 5d 8d 04 40
       0.5136228 -0.50778764 -0.40416086 2.0711281
000070 cd ba 5f 3e 0e 98 7e 3f 62 12 5a bf 8c c9 e3 3f
       0.21848603 0.9945077 -0.851843 1.7795882
000080 18 2a ea bd 29 82 36 3f 52 ea 9b be ff 81 1b 40
       -0.1143381 0.7129236 -0.3045221 2.4298093
000090 32 b6 6a 3f 40 fd 28 bc 8f 4a 25 3f 58 ce 9d be
       0.9168426 -0.010314286 0.6456689 -0.3082149
0000a0 02 df 03 3e 94 92 be be ad bf 50 3f 50 8c 0f bf
       0.1287804 -0.37221205 0.81542474 -0.56073475
0000b0 07 13 bb 3f 04 89 5e be d2 6e 8f 3f a6 5a 89 3e
       1.4615182 -0.21731955 1.1205695 0.26826972
0000c0 a2 86 fe 3e f5 3a 92 be 33 26 bc 3e ea ac 6f 3e
       0.49712092 -0.28560606 0.36747894 0.23405805
0000d0 92 8b a9 3f 58 e6 80 bd 9a dd d1 be 14 0e 46 bd
       1.3245718 -0.062939346 -0.4098938 -0.04835327
0000e0 91 e6 04 3f 2c d1 3a be f9 49 81 3f d9 cd 3e 3f
       0.51914316 -0.18243855 1.01007 0.7453285
0000f0 e4 7a a2 3f a9 fa a2 3f 93 89 16 be a4 5b c2 be
       1.2693753 1.2732745 -0.14700918 -0.3796054

fc2.weight f4 [64, 64]
000000 5c f3 94 3e d4 33 cf be 36 ce e9 bd e0 f2 20 3c
       0.29091918 -0.4046923 -0.11416285 0.009823531
000010 cd 12 42 bc 8b 00 94 3d e0 b3 96 bf d5 06 e3 be
       -0.011845303 0.07226666 -1.1773643 -0.4434115
000020 7c 1c 6f 3d 10 25 56 be ec 24 d4 bd a5 ff 64 bf
       0.058376774 -0.20912576 -0.10358605 -0.8945258
000030 4f 8d 07 3e fd cb 18 bd b2 f4 b0 bd 18 32 a2 3d
       0.13237499 -0.037303913 -0.08640422 0.07919711
000040 aa 52 c1 3d 40 d0 a8 3c f4 d6 a0 3d 44 56 c6 3d
       0.09439595 0.020607114 0.07853499 0.096844226
000050 4e 89 82 be a0 ae 33 bd 7c ff 86 3e 85 f0 02 3e
       -0.2549538 -0.043867707 0.26366794 0.12787063
000060 85 b6 05 3e 29 53 0b 3e 90 60 77 3d 9c 8b 08 3d
       0.13057907 0.13605942 0.060394824 0.033336267
000070 6c fc 31 be d6 38 34 3e 68 5f bc 3e 60 de 20 bf
       -0.17381448 0.17599806 0.3679154 -0.6283932
000080 58 42 b8 bc 83 94 b3 3e 80 e2 b5 3c fe 85 04 3d
       -0.022492573 0.35074243 0.02220273 0.032354347
000090 11 9d 91 3e f4 a2 79 3d 1d 3c 6d be 88 46 e7 3c
       0.28440145 0.06094642 -0.23167463 0.028231874
0000a0 d9 d4 d9 3f ba 8d fc bd ba 83 4b 3f 45 ed 77 3e
       1.7018081 -0.1233172 0.79497874 0.24211605
0000b0 cc 98 e6 3f 38 3e 44 3f 5d 17 50 3d 71 3d e6 be
       1.801538 0.7665744 0.05080353 -0.4496875
0000c0 49 cb a8 bf 99 97 33 bf 0b be 79 be 35 ac 2f be
       -1.3187038 -0.70153195 -0.24388902 -0.17155536
0000d0 9b 75 46 be 38 ce 79 bd c4 51 f7 bd 9e 66 43 be
       -0.193808 -0.06098768 -0.120761424 -0.19082114
0000e0 46 38 d2 be 42 9a d1 3d 2c dd 3a bd 8f a1 3e 3f
       -0.41058558 0.102345005 -0.045621082 0.7446527
0000f0 b5 24 57 3d 72 f3 d9 3f 3a 0e 42 3f 65 5b 78 3f
       0.05252524 1.7027419 0.7580296 0.97014457
000100 e2 18 3c 3f ac 22 fb 3e 81 98 2e 3e 58 24 9f 3d
       0.7347547 0.4904989 0.17050363 0.07770604
000110 d0 cc ca 3d 85 a9 c1 3e eb 46 ce 3e 13 c7 2d 3f
       0.09902346 0.37824646 0.4028848 0.6788189
000120 4a 4f 90 bd 8e d9 50 3e b2 fc c4 bd 1c 13 11 40
       -0.07046373 0.2039549 -0.0961851 2.2667913
000130 ed 9b 20 3f 66 0a a9 3e c4 24 94 bd d2 50 40 3e
       0.62737924 0.33015746 -0.07233575 0.1878083
000140 8c b5 a3 3d 77 62 65 3e 32 96 38 3e b8 46 eb 3d
       0.07993612 0.22400843 0.18026045 0.11488098
000150 2e 40 cc 3d 5a 57 c2 bd c7 f7 fa 3f 04 0a dd 3e
       0.09973179 -0.09489317 1.9606866 0.43171704
000160 03 82 88 3e 87 d7 30 3e d6 74 91 bd 9d c4 d1 3e
       0.2666169 0.17269717 -0.07102363 0.40970317
000170 7b 97 c0 3e 98 57 10 3f b4 1c 2c bf 03 ba 47 40
       0.3761557 0.5638366 -0.672313 3.1207283
000180 dc fa 0a bd 4a 7d 09 bf b0 fe 43 3c 15 17 e3 3e
       -0.033930644 -0.537068 0.011962578 0.44353548
000190 28 21 f9 be 8c 10 9e bd 99 40 9e 3d 58 7f 75 3d
       -0.4865811 -0.07718 0.07727165 0.059935898
0001a0 98 ce 66 be e0 f7 e9 bd 5f 9a 7b bf d4 4a 7a bb
       -0.22539747 -0.114242315 -0.98282427 -0.0038191574
0001b0 f0 d1 46 3f 60 91 a8 bd bf 10 e9 3d b9 c6 97 3e
       0.7766409 -0.08230853 0.11380147 0.296438
0001c0 2a 3e 1b 3f cd a9 33 3f 4b b1 c0 bd 77 82 e8 3d
       0.6064173 0.7018097 -0.09408816 0.11353009
0001d0 89 53 cf 3e 46 27 c3 bd ec 5d 7e 3d c0 b8 b0 3d
       0.4049342 -0.09528975 0.06210129 0.08628988
0001e0 11 83 b3 3e c0 be f8 bd 11 d7 19 3e 91 93 46 3f
       0.35060933 -0.12145758 0.15023448 0.7756892
0001f0 0b dc ad 3d 23 d8 5a 3f 36 3d 1a be 0c fd 8d be
       0.084892355 0.8548605 -0.15062413 -0.27732122
000200 f0 49 e5 bd a6 5f af be ef f1 95 3e 6e d7 89 3d
       -0.11195743 -0.3425266 0.29286143 0.06730543
000210 3e 5b 75 3e be a4 fb 3d f7 43 31 bf 72 1f d2 3f
       0.23960587 0.122872815 -0.6924433 1.6415846
000220 20 23 dc 3b c9 82 77 bc ac 44 cd bd 5c f1 b8 bf
       0.0067180544 -0.015106865 -0.10022864 -1.4448657
000230 b3 e5 18 be 0c 42 54 bd a0 e8 dc 3c e2 de 01 3e
       -0.14931373 -0.0518208 0.026966393 0.1268268
000240 10 35 23 3d 3a 59 17 3e 49 7c e1 3d 0c 49 ab bd
       0.039845526 0.14780131 0.11010034 -0.08363542
000250 4d 6e 25 bd e4 f5 1d bd d5 5b 6b bf eb 21 64 3e
       -0.040388394 -0.038564578 -0.91937 0.22278564
000260 ae aa 66 3e 87 3f 47 3e 00 84 33 3d d5 59 df bd
       0.22526047 0.19457828 0.043827057 -0.10905806
000270 50 b8 1e be 9c 17 6b 3d b7 5f 33 3f 29 d3 fe bf
       -0.15499997 0.057395563 0.70067924 -1.9908191
000280 f8 b7 b4 bd e5 59 d5 3f 48 dd d2 bd 50 9b 07 3e
       -0.08824152 1.6668059 -0.10296112 0.13242841
000290 f0 62 09 40 94 04 c5 3d e8 e7 0c 3e dc a7 8d 3d
       2.1466637 0.09620014 0.1376034 0.06916782
0002a0 e8 9f 4d 3f 94 4c 1e bd bc 4c f4 3f 10 f8 9a 3e
       0.8032212 -0.03864725 1.9085917 0.30267382
0002b0 9d 95 75 bc 96 68 f8 3e 38 42 60 3e 06 5a 26 be
       -0.014989284 0.48517293 0.2190026 -0.16245279
0002c0 22 1b 5f bf c9 a5 37 bf 62 c0 59 3e a2 e5 97 3d
       -0.87150776 -0.71737343 0.21264794 0.07416846
0002d0 e1 c7 db bd 6e 8e b4 3d f8 4b 80 3d 08 ba 82 3d
       -0.10731483 0.08816229 0.0626449 0.06383139
0002e0 38 32 82 be a6 f8 89 bd 58 1c d0 3d 87 90 a8 3d
       -0.2542894 -0.06736879 0.10161656 0.082306914
0002f0 61 d7 8a 3d b0 d0 7c 3e f5 cf fc 3e d1 45 54 3f
       0.067793615 0.24688983 0.4937741 0.8291903
000300 88 0e 0e bd b1 ac 66 bd 70 ba b1 3c 68 9a 35 3d
       -0.034681827 -0.056317035 0.021695346 0.044336706
000310 29 18 91 bd 29 f6 a6 3a 74 5c 94 3d 42 f6 b5 bc
       -0.07084686 0.0012738156 0.072441965 -0.022212151
000320 a8 d1 1b 3d b8 f9 f6 bc b0 74 33 3d e6 71 b9 bd
       0.03804174 -0.030148372 0.043812454 -0.090549275
000330 4e 8e aa bd 82 f6 95 bd 4c 44 eb 3d e4 cf 31 bd
       -0.08327924 -0.07322408 0.11487636 -0.04341115
000340 00 f0 b2 b9 4a 0d 90 bd 9d 8a eb 3d 0e 07 fa 3d
       -0.0003412962 -0.07033785 0.11501048 0.12208377
000350 5e 17 d5 bd 10 88 cf bd d4 0b c2 bd bf 0b 2a bc
       -0.104048476 -0.10133374 -0.09474912 -0.010378777
000360 71 8d 2a bd ac 95 bb bd e0 a3 37 bd 44 c3 62 3c
       -0.041638795 -0.09159407 -0.044834018 0.0138405
000370 64 c5 99 bd 66 d1 92 3c e2 72 1d bd b0 18 78 bd
       -0.075083524 0.017922115 -0.03843964 -0.06057042
000380 c8 ae 8c 3c 84 7f d2 3d 88 13 ad bd 16 25 82 bb
       0.017173186 0.10278228 -0.08450991 -0.003971706
000390 20 cf 3c bd e4 36 fb 3d 26 e2 f2 bd d2 6a f5 bd
       -0.046095967 0.12266329 -0.11859541 -0.11983265
0003a0 d7 3c e8 3d f8 f7 a1 bd 20 53 c4 3c f9 75 a8 bc
       0.11339729 -0.079086244 0.023965418 -0.020564066
0003b0 78 b6 d7 bc 38 65 1a bd 2a a7 8e 3d c0 c6 c3 3b
       -0.026332125 -0.037694186 0.06965478 0.0059746206
0003c0 ce 3e f9 bd d8 21 97 bd b7 93 56 bd 8b a0 59 3d
       -0.12170182 -0.07379502 -0.052386966 0.05313162
0003d0 d3 af b9 bd 2e 63 f1 3d 28 13 e4 bc e7 f8 03 bd
       -0.09066739 0.11786495 -0.027841166 -0.032219794
0003e0 42 97 c8 3d e6 aa 80 3d 1f 19 c5 3d 91 0f 80 3d
       0.09794475 0.06282596 0.09623932 0.06252969
0003f0 b9 5b 43 bd 54 d9 a9 bd 72 45 9c bc aa da bf 3d
       -0.047694895 -0.08293405 -0.019076083 0.09367879

fc2.bias f4 [64]
000000 08 97 9b 3d b7 97 84 3f 85 b6 b6 be 66 b8 a8 bd
       0.07597166 1.03588 -0.35686126 -0.08238296
000010 6d c3 5b 3f cd bc 9c 3e bd e8 37 bd 99 a1 fd bd
       0.8584507 0.30612794 -0.04489969 -0.12384338
000020 bd ec 43 bd 61 a3 0b be 9a 7c b3 bd c7 a0 8d be
       -0.047833193 -0.13636543 -0.08764 -0.27661726
000030 88 7d bf bd 49 c9 65 3c 0b 1c 85 3f e9 a5 13 be
       -0.09350115 0.014025041 1.0399183 -0.14418758
000040 f8 1a 6c be 30 b6 79 3f cd cf 65 3f 86 92 4c bc
       -0.23057163 0.9754362 0.89770204 -0.012486106
000050 23 14 e8 be d2 7d aa be 12 a2 71 3f 10 04 7a 3f
       -0.45327863 -0.33299118 0.94387925 0.9766245
000060 e6 6f fc 3c a4 31 6b be 88 0d c5 be 8b 28 8b bc
       0.030815076 -0.22968155 -0.38486886 -0.016987106
000070 b8 fc 56 3d 96 1e 63 3c ef 17 42 3f fb b7 52 3f
       0.052487105 0.013862273 0.7581777 0.8231198
000080 04 60 63 bd 2d 43 a6 bd cc 5d 60 3f 29 dd 84 be
       -0.05551149 -0.081182815 0.8764312 -0.25949982
000090 16 a0 6f 3f fa c2 d7 be df 44 60 be d0 63 1e be
       0.93603647 -0.42140943 -0.21901272 -0.15467763
0000a0 7f 3a 88 be d3 78 f6 be 75 e5 5f be 20 8b 6b 3f
       -0.2660713 -0.48139057 -0.21864875 0.9200916
0000b0 75 5e b7 3e 5e 22 62 3f 01 5b 72 3f 28 ab 06 bd
       0.35814252 0.8833369 0.9467011 -0.03287807
0000c0 ce e4 02 bf 2d 20 e8 3d b7 73 87 3f 72 7f b7 bd
       -0.5113038 0.11334262 1.0582188 -0.08959855
0000d0 9b ec 88 be 33 45 da 3d 96 b1 7b be 47 50 cb be
       -0.26743016 0.1065773 -0.24579462 -0.39709684
0000e0 89 97 6c 3f d0 ce ce bc d7 8b 3c be 64 c1 5e 3f
       0.92418724 -0.0252451 -0.1841272 0.8701384
0000f0 1c a2 6e 3f de e0 22 3e 78 a7 8d be d4 68 93 3d
       0.9321611 0.15906093 -0.2766683 0.07197729

fc3.weight f4 [4, 64]
000000 08 02 81 be cf 69 97 3e 40 f8 25 bf bc 01 4d bd
       -0.25196862 0.29572913 -0.64831924 -0.050050482
000010 f5 55 da 3e 8a b0 13 3d 48 1a 50 bc 40 13 4a bd
       0.42643705 0.036057033 -0.012701578 -0.049334764
000020 a8 8d 15 bf 13 48 c2 bd 85 14 a3 3d ba 03 e0 be
       -0.58419275 -0.09486403 0.07962898 -0.43752843
000030 de 21 b2 3d ea 6f c1 3d eb 40 bf 3e 12 36 c6 be
       0.08697866 0.09445174 0.37354216 -0.38713127
000040 c6 31 17 bf 2d c8 3e 3f 74 d2 0c 3f 8f dd dd bc
       -0.59060323 0.74524194 0.55008626 -0.027083186
000050 84 c1 2f bf ff 79 af bf 90 63 e6 3e 31 99 f3 3e
       -0.68654656 -1.3709105 0.44997835 0.47577813
000060 81 9f 75 3d 71 6c 0f bf 22 0e e1 be 0e 23 12 3d
       0.059966568 -0.56024843 -0.43956095 0.035677962
000070 d8 ec 78 3d 82 d2 9f 3c cb e9 b3 3f ca 82 45 3f
       0.060772747 0.019509558 1.4055723 0.77152693
000080 50 78 2e bc 9e 0d d2 bd 19 5f 4f 3f bd 9f a7 be
       -0.010648802 -0.102565035 0.8100448 -0.32739058
000090 eb b5 c2 3e de 00 54 bf 11 9d 91 be 86 d0 0c bf
       0.38029417 -0.82813823 -0.28440145 -0.5500568
0000a0 37 66 0f bf a5 d1 85 be 76 42 5e 3b 4c f4 0f 3f
       -0.5601534 -0.2613651 0.0033914126 0.5623214
0000b0 aa bb 24 bf 83 8d 35 3f 0a af b5 3e 68 ce d5 3c
       -0.6434885 0.70919055 0.35485107 0.026099399
0000c0 b7 99 cd be 10 bb 94 3d bf 6e 83 3e f4 d8 ff bd
       -0.40156338 0.07262242 0.2567043 -0.124925524
0000d0 01 69 56 bf 57 fb 77 3d f2 02 39 bf 76 42 0f bf
       -0.83753973 0.06054243 -0.7227012 -0.55960786
0000e0 50 44 11 3f 5c c4 41 bd f0 34 e8 be 1a 31 a9 3e
       0.5674486 -0.047306404 -0.45352888 0.33045274
0000f0 d2 b2 f6 3e 83 f1 3f bf 15 b5 24 bf d6 92 b3 3d
       0.48183304 -0.7497789 -0.6433881 0.08768241
000100 de 78 24 bf 3a 5e ec 3e b2 65 20 bf 8f 18 2c bd
       -0.6424693 0.4616564 -0.62655175 -0.04201561
000110 d1 01 aa 3e 78 3f c7 3e 80 f0 d1 3d 24 f5 32 3c
       0.3320451 0.3891561 0.1025095 0.010922704
000120 2a 7f 2e bf ea 12 b1 bc 7e e2 82 bb d7 2b 01 bf
       -0.68162787 -0.021615464 -0.003994285 -0.5045752
000130 0c b8 c8 bd e4 10 5b bd 88 bd b9 3e 83 a0 6e bf
       -0.09800729 -0.053482905 0.36277413 -0.9321367
000140 75 08 11 bf 5b cc 9f 3f b2 4d 0d 3f d9 ff 07 bd
       -0.5665353 1.2484239 0.5519668 -0.03320298
000150 2c a5 07 bf ca 87 06 bf da 1e ac 3f 42 f0 d2 3e
       -0.5298641 -0.5255095 1.3446915 0.41198927
000160 66 f0 27 bd 6c 3f 46 bf ab 89 d7 be 01 60 9d bc
       -0.041000746 -0.77440524 -0.4209722 -0.019210817
000170 be 6b 93 3d b1 80 69 bd f5 58 11 be b1 2a f3 3e
       0.071982846 -0.057007495 -0.1419409 0.47493508
000180 e0 9e ab bc 27 8e d2 bd d4 2b 1f 3f b1 33 3d bf
       -0.020949781 -0.1028102 0.6217625 -0.73907
000190 ae 05 fd 3e 69 5d 1b bf 6b 82 5e bf f6 82 27 bf
       0.49418396 -0.6068941 -0.8691775 -0.65434206
0001a0 c7 74 19 bf ba 6c 06 c0 9b 65 4f bf 2a f2 0a 3f
       -0.59943813 -2.1003861 -0.8101441 0.54275763
0001b0 69 91 11 3f f8 55 0c 3f ba 26 04 3f 00 e7 52 3a
       0.56862503 0.5481868 0.5162159 0.0008045286
0001c0 3d ec a5 bf fc c6 5b bb 5a 78 e4 3e 38 8a 62 3d
       -1.2962719 -0.0033535352 0.4462307 0.055307597
0001d0 46 72 37 bf 39 ad fe bc 31 fe 39 bf 6e 6d 25 bf
       -0.7165874 -0.031088458 -0.7265349 -0.646201
0001e0 84 74 f5 3e 30 8a c1 bd 1b 57 76 bf e2 b3 c7 3e
       0.47940457 -0.09450185 -0.9622666 0.39004427
0001f0 2f 2d 05 3f 2e dd ec 3e 10 17 22 bf fd 35 c7 3d
       0.5202207 0.46262497 -0.6331644 0.09727094
000200 34 21 a9 3e 40 c0 1c 3f 69 1e 07 bf f8 9a cd 3d
       0.33033144 0.6123085 -0.5278078 0.100393236
000210 13 ab 12 3f bc 3f 14 bf 88 ee 86 bd 80 10 1a 3b
       0.5729229 -0.5790975 -0.06588465 0.002350837
000220 8b 1a 53 be 94 60 77 bd 47 5b be 3d 57 45 7f bf
       -0.20615594 -0.06039484 0.092947535 -0.9971518
000230 f2 f1 de 3d 00 35 7b 3a 31 77 e7 3e 0a 05 d3 be
       0.10885991 0.0009582788 0.45208123 -0.41214782
000240 01 a6 e8 3e 64 49 bb 3e ed 72 c0 3e f5 d4 32 3d
       0.4543915 0.3657943 0.3758768 0.043660123
000250 f5 a3 b1 bf db c1 bc bf 31 f1 46 3e 2c 96 ea 3e
       -1.3878161 -1.474666 0.19427945 0.45817697
000260 89 02 8d 3d 9e a6 a4 be c3 f3 83 bf 23 c6 f3 bd
       0.06885249 -0.3215837 -1.0308765 -0.11903026
000270 90 bf 86 3c 10 39 98 3d 70 74 81 3f a3 78 dd 3e
       0.016448766 0.07432759 1.0113659 0.432561
000280 d6 be bd 3d a4 66 53 3d cd 40 22 3f 60 11 71 bd
       0.09264915 0.051611558 0.6338013 -0.05885446
000290 1e f6 18 3f 36 fd 82 bf 16 68 58 be 19 8c 52 bf
       0.59750545 -1.0233524 -0.21133456 -0.8224502
0002a0 3e de 67 bf fa 90 01 bd 57 1e c3 3e 35 7c d3 3e
       -0.9057349 -0.0316324 0.38109085 0.413057
0002b0 c3 a5 95 bf 61 a8 04 3f 20 27 01 3f 6a bc b5 bd
       -1.1691211 0.51819426 0.50450325 -0.08873828
0002c0 23 29 99 3e d0 c4 ca bc e5 05 0a 3f 30 91 ce 3c
       0.29914197 -0.02475205 0.53915244 0.025215715
0002d0 29 e0 08 3c cf 8a 99 3d 63 a6 7f bf b0 0e 46 bf
       0.008354225 0.07497179 -0.9986326 -0.7736616
0002e0 a2 ab 0f 3f 00 88 fc 3b 73 c7 97 bc a0 1e 12 3f
       0.56121266 0.007706642 -0.018527722 0.5707798
0002f0 a3 3d 17 3f be 5c 10 3f 99 ff 58 bf f9 33 ed bc
       0.59078425 0.56391513 -0.8476501 -0.028955447
000300 17 c1 c7 be 7c 81 96 3e b3 91 29 bf 14 00 c8 3d
       -0.39014503 0.29395664 -0.66237944 0.0976564
000310 34 5a d1 3e ed 75 85 3e 60 5a 81 3b 10 59 8d 3c
       0.40889132 0.26066533 0.003947541 0.017254382
000320 81 1b 00 bf 72 c3 a6 bd cf 0e 2b bd a3 d6 54 bf
       -0.5004197 -0.08142747 -0.04176217 -0.8314001
000330 78 43 c9 bd 86 cb 5f bc a4 8a eb 3e de fa 1f bf
       -0.09827322 -0.013659364 0.46004212 -0.6249217
000340 cc aa dd be 11 c6 6e 3e 9d 53 fd 3e d0 1f 83 3d
       -0.4329437 0.23317744 0.49477854 0.06402552
000350 55 c3 24 bf 45 b5 3d be ff fa 2c be 50 e5 c3 3e
       -0.64360553 -0.1852618 -0.16892622 0.3826089
000360 5d 47 4c bd df d8 2e bf 57 ad 12 bf 2f 26 af bd
       -0.049872745 -0.6829967 -0.57295746 -0.08552205
000370 76 b3 be 3d 80 b5 f3 bd e4 00 ef 3f af 3f 3a 3f
       0.09311573 -0.11899853 1.8672147 0.72753423
000380 ca 00 ad bd e0 57 e2 3d 3e 50 26 3f 1a a6 41 bf
       -0.08447416 0.11051917 0.6496619 -0.75644076
000390 a9 f4 f7 3e 91 c3 15 bf d4 f3 07 bf ec 67 05 bf
       0.48428848 -0.58501536 -0.5310643 -0.521117
0003a0 50 3f 07 bf 10 0e 31 bf 17 b6 a4 be 29 44 e5 3e
       -0.5283098 -0.6916208 -0.32170174 0.44778565
0003b0 27 23 80 3f d7 9f 47 3f 70 15 a6 3e 00 15 c0 ba
       1.0010728 0.7797827 0.3243823 -0.0014654696
0003c0 db 41 c5 be aa 10 8f bd 9e af ec 3e f4 98 d4 bd
       -0.38526806 -0.069856 0.46227735 -0.10380736
0003d0 e0 17 b7 be e3 44 67 3d 42 22 fe be b3 87 07 bf
       -0.35760403 0.05646218 -0.49635512 -0.52941436
0003e0 c0 82 14 3f 74 9c 35 3d 25 d8 04 bf ed 84 f4 3e
       0.5801201 0.04433866 -0.5189231 0.47757664
0003f0 9f 50 e6 3e 57 7f 71 be 91 32 ef be b2 b4 bd 3d
       0.44983384 -0.23583733 -0.46718267 0.092629805

fc3.bias f4 [4]
000000 21 70 a9 3e c9 df 10 3f ff a6 df 3e df a7 f2 3d
       0.3309336 0.5659147 0.43682095 0.11848425
