dqn_goal_full_empty/run-demo/checkpoint.pth (torch, 21285 bytes, 6 tensors)

fc1.weight f4 [64, 4]
0	0xbf80e74f	-1.007059
1	0x3ea02c9e	0.3128404
2	0xbed2b316	-0.41152257
3	0xbed95ada	-0.42452127
4	0xbf98ad94	-1.1927972
5	0x3e369836	0.17831501
6	0x3e3eb06a	0.18621984
7	0x3eb9ed88	0.36314034
8	0xbf9830bf	-1.1889876
9	0x3e1aaaf2	0.15104273
10	0xbe1abbac	-0.15110654
11	0xbea027c5	-0.31280342
12	0xbef491b8	-0.47767425
13	0xbea98b52	-0.33114105
14	0xbe530ee8	-0.20611155
15	0x3c97bb00	0.018521786
16	0x3e0b840d	0.13624592
17	0x3ed9587b	0.42450318
18	0xbead8d8c	-0.33897054
19	0xbf4b7ffc	-0.79492164
20	0x3f968c4e	1.1761568
21	0x3ef8491f	0.48493287
22	0x3c90c937	0.017674072
23	0x3ef14a4c	0.47126997
24	0xbf917ca9	-1.1366168
25	0x3db7a9f9	0.089679666
26	0x3f067c65	0.5253356
27	0xbf2e618b	-0.6811759
28	0x3df00305	0.11719326
29	0xbd681616	-0.056661688
30	0xbea8f059	-0.3299587
31	0x3f16a658	0.5884757
32	0xbea5ef1a	-0.32408983
33	0xbe6bb0c0	-0.23016644
34	0xbeb2da1a	-0.34932023
35	0xbeefc276	-0.4682805
36	0xbfaf924e	-1.3716524
37	0x3eecdaaa	0.46260577
38	0x3ef026f8	0.4690473
39	0x3e9ef286	0.31044406
40	0x3cd76a40	0.026295781
41	0xbe833f3a	-0.25634176
42	0x3dad3ec0	0.08459234
43	0xbeef069e	-0.46684736
44	0x3f30f470	0.6912298
45	0xbdcc7f83	-0.099852584
46	0x3e64eb4d	0.22355385
47	0x3e139c13	0.14415006
48	0x3f5079ff	0.8143615
49	0xbd42713c	-0.04747127
50	0x3ce063cc	0.027391337
51	0x3f3090c1	0.68970877
52	0xbf7a10ef	-0.9768209
53	0x3e1d91f6	0.15387711
54	0x3ed6078f	0.41802642
55	0xbedcaabb	-0.43099007
56	0x3dbed0f8	0.093172014
57	0xbec67a6c	-0.38765275
58	0xbeb16e18	-0.34654307
59	0xbe843ed2	-0.25829178
60	0x3f9caf78	1.2241049
61	0x3e8fba5f	0.28071877
62	0xbe97a46a	-0.29617625
63	0x3d94ddbd	0.07268856
64	0x3e8c896e	0.274486
65	0xbd813f20	-0.06310868
66	0x3c9c6440	0.019090772
67	0x3ded4400	0.115852356
68	0x3f289ce3	0.6586439
69	0x3f669968	0.9007783
70	0x3e8c269a	0.273732
71	0xbc8bc1b1	-0.017060133
72	0xbb16ade0	-0.0022991821
73	0x3f20bfd3	0.627927
74	0x3f43cab7	0.76481193
75	0xbf9bb01c	-1.2163119
76	0x3dcbca78	0.09950727
77	0xbede9cf8	-0.43479133
78	0x3d3c6690	0.04599625
79	0xbea027ac	-0.31280267
80	0xbfc89446	-1.567025
81	0x3ef32a0d	0.4749302
82	0x3e719635	0.23592456
83	0xbf1eb730	-0.6199827
84	0x3dbfaa08	0.09358603
85	0xbdac80c8	-0.084230006
86	0xbda882b8	-0.082280576
87	0xbe6a5f1c	-0.22887844
88	0x3ea294ba	0.31754094
89	0xbf52da51	-0.82364374
90	0x3f8ef382	1.1168063
91	0x3e817616	0.25285405
92	0x3f9edd8e	1.2411363
93	0x3f1df719	0.61705166
94	0x3de5530b	0.1119748
95	0xc01edf0d	-2.482364
96	0xbf67d3dd	-0.9055765
97	0x3e271d77	0.16319834
98	0xbec7b396	-0.390042
99	0xbf0f7efc	-0.5605314
100	0x3fb4dd43	1.4130024
101	0x3ed84c1b	0.42245564
102	0xbe5f3eb0	-0.21801257
103	0xbdc7e2fd	-0.097600915
104	0xbef3dd78	-0.47629905
105	0xbc133e80	-0.008987069
106	0xbec0c878	-0.37652946
107	0xbec577a2	-0.38567835
108	0x3fa154aa	1.2603962
109	0x3e3f8047	0.18701278
110	0xbdf7c684	-0.12098411
111	0x3f15eb8a	0.5856253
112	0xbfb2f5d6	-1.3981273
113	0x3f03721c	0.5134599
114	0x3f060420	0.52350044
115	0xbef47f85	-0.4775354
116	0x3f7a2bf7	0.97723335
117	0x3d3844f4	0.044987634
118	0xbdcf4a60	-0.10121608
119	0x3e8362a6	0.256612
120	0x3f8a70a5	1.0815626
121	0x3d9265a0	0.0714829
122	0xbe79d1cc	-0.24396437
123	0x3d42ce3c	0.04755996
124	0xbf5b034a	-0.85551894
125	0xbc337fc1	-0.010955752
126	0x3e6df0a2	0.23236325
127	0xbe7966ec	-0.24355668
128	0xbe331d5c	-0.17491668
129	0xbed1d2ba	-0.40981084
130	0xbdd9d200	-0.106357574
131	0x3ddae2f8	0.10687822
132	0x3f026d85	0.50948364
133	0xbdc6867b	-0.09693619
134	0x3e73eb0f	0.23820136
135	0xbceb063f	-0.028689502
136	0x3c63ac80	0.013896108
137	0xbd30adc0	-0.04313445
138	0x3dcf3d10	0.101190686
139	0x3ea2c660	0.31791973
140	0x3f131911	0.57460123
141	0x3f3e6265	0.7436889
142	0xbd7a1f99	-0.06106529
143	0xbf85b480	-1.0445709
144	0x3f914579	1.1349326
145	0xbe887cef	-0.26657817
146	0x3ea22203	0.31666574
147	0xbb546b00	-0.003241241
148	0xbe7e7cdc	-0.24852318
149	0xbec42d02	-0.38315588
150	0xbeef9400	-0.46792603
151	0xbed810ec	-0.4220041
152	0xbf356eeb	-0.7087237
153	0x3ed8badc	0.42330062
154	0x3f0bdda3	0.54635066
155	0xbee13f18	-0.4399345
156	0x3e9fb02e	0.31189102
157	0xbec8528a	-0.39125472
158	0xbdd87bf0	-0.10570514
159	0xbe4f9a1c	-0.20273632
160	0x3f9c20c9	1.2197505
161	0xbcac5792	-0.02103785
162	0xbed2be9e	-0.41161054
163	0xbf8c325b	-1.0952867
164	0xbda03c28	-0.07823974
165	0x3bd3e180	0.0064660907
166	0xbe6896b8	-0.22713745
167	0x3e40deb8	0.1883496
168	0xbf327aec	-0.69718814
169	0xbdf735ae	-0.120707855
170	0x3e9ed143	0.3101903
171	0xbe50d738	-0.203946
172	0x3fb4689a	1.4094422
173	0x3e5bcddf	0.21465252
174	0xbee707ae	-0.45123047
175	0x3eb21a82	0.3478585
176	0xbd6c53f0	-0.057697237
177	0xbeb4e972	-0.35334355
178	0x3f7228b5	0.94593364
179	0xbecedf54	-0.4040476
180	0x3f82a8f9	1.0207816
181	0xbc15fdeb	-0.009154777
182	0x3d9bd82f	0.07609593
183	0x3ea663a7	0.32497904
184	0x3f9bd048	1.2172937
185	0x3eb3debf	0.3513088
186	0xbdf63f00	-0.12023735
187	0xbe602646	-0.218896
188	0xbfbb8840	-1.4650955
189	0x3eb0ebdf	0.34554955
190	0x3f491d6e	0.7856053
191	0x3ec1f19f	0.37879655
192	0xc02a21a3	-2.658303
193	0x3e20d2d5	0.15705426
194	0xbe9d92e3	-0.30776128
195	0xbf08e4eb	-0.534743
196	0xbfad671b	-1.354709
197	0x3e4512b3	0.19245414
198	0xbe988dc4	-0.2979566
199	0xbe51899e	-0.20462653
200	0xbf87f2b1	-1.0620939
201	0x3ea6e983	0.3260003
202	0xbec183fa	-0.37796003
203	0xbeebd3dd	-0.46060076
204	0xbf80f7f3	-1.0075668
205	0x3eb52460	0.35379314
206	0x3de8f76b	0.11375316
207	0x3faf24ae	1.3683069
208	0x3e8ee0dc	0.2790593
209	0x3f0299d5	0.5101598
210	0xbdce799e	-0.100817904
211	0xbf184839	-0.59485203
212	0x3d807a40	0.06273317
213	0xbde9d330	-0.11417234
214	0xbb663e00	-0.003513217
215	0x3d82a7c0	0.06379652
216	0xbec83e98	-0.39110255
217	0xbe862d7a	-0.2620657
218	0x3eceb7d8	0.40374637
219	0xbecfc186	-0.40577334
220	0xbf932561	-1.1495782
221	0x3f01ed47	0.5075268
222	0x3e0d26b7	0.137843
223	0xbe32ed1e	-0.17473266
224	0xbfb8c3bf	-1.4434737
225	0x3e96aa0d	0.29426613
226	0xbe2ffe69	-0.17186894
227	0xbddf3544	-0.108988315
228	0xbe2bc8cc	-0.16775817
229	0xbd97a438	-0.07404369
230	0x3bb33680	0.0054691434
231	0x3ed32696	0.41240376
232	0xbf4837f6	-0.7821039
233	0x3f02e391	0.5112849
234	0x3f273f6c	0.6533115
235	0xbdabd4e0	-0.08390212
236	0x3f8d464e	1.103708
237	0xbd8ccd52	-0.06875099
238	0xbf0c7410	-0.548646
239	0x3e24885e	0.16067645
240	0xbf3e1e3a	-0.7426487
241	0x3f0120a4	0.5044043
242	0xbe325520	-0.17415285
243	0xbe6d887a	-0.23196593
244	0x3f753ee0	0.95799065
245	0xbe8c2edb	-0.27379498
246	0x3f50bed3	0.81541175
247	0xbed3b130	-0.4134612
248	0x3f7dc182	0.99123394
249	0xbc690872	-0.014223205
250	0xbe8bf75e	-0.27337164
251	0x3e62819d	0.22119756
252	0x3f8e5f5f	1.1122855
253	0xbdde06dc	-0.10841152
254	0xbe703990	-0.23459458
255	0xbe54394f	-0.20724986

fc1.bias f4 [64]
0	0xbed0c431	-0.40774682
1	0x3ec985a6	0.39359778
2	0xbe5a6dd5	-0.2133096
3	0xbeaad6d0	-0.33367014
4	0x3e317f49	0.17333712
5	0x3ee0b1f5	0.4388577
6	0x3ed1d50b	0.4098285
7	0x3f679c8c	0.90473247
8	0x3e39b6d8	0.18136156
9	0x3cee955e	0.029123958
10	0xbe0f13d4	-0.13972408
11	0x3fb40f4e	1.4067171
12	0x3e9cd7e2	0.30633456
13	0x3e9cdbf6	0.30636567
14	0xbe72401c	-0.23657268
15	0xbe0dfbf5	-0.13865645
16	0xbef20a42	-0.4727345
17	0x3fc25de0	1.5184898
18	0x3f367ac6	0.7128109
19	0xbee43e50	-0.4457879
20	0x3f0e7424	0.55645967
21	0xbea63fd0	-0.3247056
22	0x3efe2686	0.49638766
23	0x3ff83022	1.9389689
24	0x3def6469	0.116890736
25	0xbe6ae721	-0.22939731
26	0xbeceee2c	-0.40416086
27	0x3f1f94ec	0.6233661
28	0x3e5f216f	0.21790098
29	0x3ed27b3a	0.4110964
30	0xbdd92489	-0.10602672
31	0x3f65bfbf	0.89745706
32	0xbdea2a18	-0.1143381
33	0x3f90392a	1.1267445
34	0xbe9bea52	-0.3045221
35	0x3fdd4840	1.7287674
36	0x3fc4690e	1.534456
37	0xbc28fd40	-0.010314286
38	0x3ef2598e	0.4733395
39	0xbe9dce58	-0.3082149
40	0x3ea0736f	0.3133807
41	0xbebe9294	-0.37221205
42	0x3f5adcaf	0.85492986
43	0xbe57b697	-0.21065746
44	0x3e027bdc	0.12742561
45	0x3e09930e	0.13435003
46	0x3d3dd2ee	0.046343736
47	0x3ed43166	0.41443938
48	0x3e9396e7	0.28826067
49	0xbec3a14b	-0.38208994
50	0x3e3fa74d	0.18716164
51	0x3f184ccb	0.59492177
52	0x3fbaa13f	1.4580458
53	0xbd80e658	-0.062939346
54	0xbed1dd9a	-0.4098938
55	0xbdb38ed4	-0.08767477
56	0x3ee122f8	0.43971992
57	0xbe3ad12c	-0.18243855
58	0x3f10e1aa	0.56594336
59	0x3eeda0b7	0.46411678
60	0x3f0f29bd	0.5592306
61	0x3f5b7047	0.85718197
62	0x3e52b5af	0.2057712
63	0x3f3c1cad	0.73481256

fc2.weight f4 [64, 64]
0	0xbc1579bd	-0.009123263
1	0xbd56ec86	-0.05247166
2	0xbe30d6ef	-0.1726949
3	0x3c20f2e0	0.009823531
4	0x3e049949	0.12949099
5	0x3e22e580	0.1590786
6	0xbc2916c2	-0.010320367
7	0x3f890147	1.0703515
8	0x3d6f1c7c	0.058376774
9	0xbdaa9a1e	-0.08330177
10	0xbdd424ec	-0.10358605
11	0xbfdf4e52	-1.7445776
12	0x3ec0ce93	0.37657604
13	0x3d644545	0.055730123
14	0xbdb0f4b2	-0.08640422
15	0x3e035048	0.12823594
16	0x3dc152aa	0.09439595
17	0x3e2ab3ef	0.16670202
18	0x3e0c010c	0.13672274
19	0x3dc65644	0.096844226
20	0xbd443b70	-0.047908247
21	0xbd33aea0	-0.043867707
22	0xbe9c2438	-0.30496383
23	0x3e0d19d2	0.13779381
24	0xbdadb74b	-0.08482226
25	0x3e3ccaf0	0.1843679
26	0x3d776090	0.060394824
27	0x3e171611	0.14754511
28	0xbdb7156e	-0.08939634
29	0x3e58fb55	0.21189626
30	0x3e4e56e3	0.20150332
31	0xbeac22fc	-0.3362044
32	0xbcb84258	-0.022492573
33	0xbfc8a13b	-1.5674204
34	0x3cb5e280	0.02220273
35	0x3db9758d	0.09055624
36	0xbe8a98e2	-0.27069765
37	0x3d79a2f4	0.06094642
38	0xbda58d0b	-0.080835424
39	0x3ce74688	0.028231874
40	0x3fb1266d	1.3839852
41	0xbdfc8dba	-0.1233172
42	0x3fb03912	1.3767416
43	0x3e55048d	0.20802517
44	0xbd8b5de0	-0.068050146
45	0x3f441092	0.76587784
46	0x3e39f304	0.1815911
47	0xbe24d0f8	-0.1609534
48	0xbf59b0d5	-0.8503545
49	0xbdd82572	-0.10554017
50	0xbdb59538	-0.08866352
51	0x3db7b7bd	0.08970592
52	0xbd680bd6	-0.056651913
53	0xbd79ce38	-0.06098768
54	0xbdf751c4	-0.120761424
55	0xbd946569	-0.07245905
56	0x3d3e7722	0.046500333
57	0x3dd19a42	0.102345005
58	0x3dc9c222	0.09851481
59	0x3f058f39	0.52171665
60	0x3e090d05	0.13383873
61	0xbf3dbeed	-0.74119455
62	0x3f217c31	0.63080126
63	0xbf5aab72	-0.85417855
64	0x3e787c66	0.24266204
65	0x3e91e8cc	0.28497922
66	0x3eb94446	0.361849
67	0x3d9f2458	0.07770604
68	0x3dad3fde	0.08459447
69	0x3e804148	0.25049806
70	0x3df7c567	0.120981984
71	0x3f3b6308	0.73197985
72	0xbd904f4a	-0.07046373
73	0x3db766e3	0.08955171
74	0xbdc4fcb2	-0.0961851
75	0x40099b63	2.150109
76	0x3dfc8942	0.12330867
77	0x3e05224d	0.13001366
78	0xbd9424c4	-0.07233575
79	0x3e8dbded	0.27683964
80	0x3da3b58c	0.07993612
81	0x3e3a1541	0.1817217
82	0x3d9bf580	0.07615185
83	0x3deb46b8	0.11488098
84	0x3e493736	0.19649968
85	0xbdc2575a	-0.09489317
86	0x3d7645f1	0.060125295
87	0x3e941c52	0.28927857
88	0x3de95407	0.1139298
89	0x3e79de00	0.24401093
90	0xbd9174d6	-0.07102363
91	0x3e5cbc8b	0.21556298
92	0x3e834591	0.25639012
93	0x3e812de9	0.2523034
94	0x3b2e08ac	0.0026555462
95	0xbfc86b8f	-1.5657824
96	0xbd0afadc	-0.033930644
97	0x4014b746	2.3236861
98	0x3c43feb0	0.011962578
99	0x3e9697b1	0.29412606
100	0x3ff40074	1.9062638
101	0xbd9e108c	-0.07718
102	0x3e029627	0.12752591
103	0x3d757f58	0.059935898
104	0xbf28f547	-0.65999264
105	0xbde9f7e0	-0.114242315
106	0xc019ac13	-2.4011276
107	0x3d9f5813	0.07780471
108	0xbe879361	-0.2647963
109	0xbe8740b0	-0.2641654
110	0x3dae9314	0.08524147
111	0x3e558916	0.20853075
112	0x3ec129ba	0.37727147
113	0x3e95568b	0.2916759
114	0x3d87a365	0.06622962
115	0x3d65a87b	0.05606888
116	0x3e6921f4	0.22766858
117	0xbdc32746	-0.09528975
118	0x3d7e5dec	0.06210129
119	0x3d09de3d	0.03365921
120	0x3d66b1ea	0.056322016
121	0xbdf8bec0	-0.12145758
122	0x3dc6e86f	0.09712302
123	0xb8513a62	-4.9883856e-05
124	0xbc4286f6	-0.0118729975
125	0x3f3f4b57	0.74724334
126	0xbe9f2df2	-0.3108974
127	0x4009f2af	2.1554372
128	0xbcb112e2	-0.02161545
129	0xbe27a08b	-0.16369836
130	0xbc76709a	-0.015041495
131	0x3d89d76e	0.06730543
132	0x3e3feae2	0.18741944
133	0x3e10b0e9	0.14129986
134	0xbe69b6a0	-0.22823572
135	0x3f97cb58	1.185893
136	0x3bdc2320	0.0067180544
137	0x3d53520b	0.051591914
138	0xbdcd44ac	-0.10022864
139	0xbfcb1450	-1.5865574
140	0x3e80e141	0.25171855
141	0xbd9e7098	-0.07736319
142	0x3cdce8a0	0.026966393
143	0x3c3c44ba	0.011490995
144	0x3d233510	0.039845526
145	0x3e0831a6	0.1330019
146	0x3d915e59	0.070980735
147	0xbdab490c	-0.08363542
148	0xbdd31c8e	-0.10308181
149	0xbd1df5e4	-0.038564578
150	0xbdbf8907	-0.09352308
151	0x3e552c31	0.20817639
152	0x3d55a5e9	0.052160177
153	0x3daefea4	0.085446626
154	0x3d338400	0.043827057
155	0xbc11756e	-0.008878095
156	0xbdda322b	-0.106541
157	0x3e8cbcbb	0.2748774
158	0x3e5c8246	0.2153407
159	0x3ed8a0c7	0.42310163
160	0xbdb4b7f8	-0.08824152
161	0xbfb2707f	-1.3940581
162	0xbdd2dd48	-0.10296112
163	0x3e02b66f	0.12764905
164	0xbf4d72b7	-0.80253166
165	0x3dc50494	0.09620014
166	0x3dd5716d	0.10422025
167	0x3d8da7dc	0.06916782
168	0x3fb0dfe8	1.3818331
169	0xbd1e4c94	-0.03864725
170	0x400e3c82	2.222443
171	0x3e24b214	0.16083556
172	0x3cf6eace	0.03014126
173	0x3f2b75ef	0.6697683
174	0x3e5a262e	0.21303627
175	0xbd3c4137	-0.04596063
176	0xbf4a2486	-0.7896198
177	0xbe42d623	-0.19026999
178	0x3de2db54	0.1107699
179	0x3e1bf7b7	0.15231214
180	0xbd5d6a06	-0.05405619
181	0x3db48e6e	0.08816229
182	0x3d804bf8	0.0626449
183	0x3db1b25b	0.08676597
184	0x3d6a6a6f	0.05723041
185	0xbd89f8a6	-0.06736879
186	0x3d933312	0.07187475
187	0x3f572c7c	0.8405225
188	0x3c39ced7	0.011340818
189	0xbef23ee4	-0.47313607
190	0x3f209456	0.6272634
191	0xbfb871ff	-1.4409789
192	0xbd0e0e88	-0.034681827
193	0xbd3edf14	-0.046599463
194	0x3d00e540	0.03146863
195	0x3d359a68	0.044336706
196	0xbd7a2610	-0.061071455
197	0x3c350a30	0.011049792
198	0x3d945c74	0.072441965
199	0xbc4bc4f0	-0.01243709
200	0x3d1bd1a8	0.03804174
201	0xbcf6f9b8	-0.030148372
202	0x3d3374b0	0.043812454
203	0xbdb971e6	-0.090549275
204	0xbd96890e	-0.0735036
205	0xbd81f174	-0.06344882
206	0x3deb444c	0.11487636
207	0xbd09c564	-0.033635512
208	0xb9b2f000	-0.0003412962
209	0xbd780fcc	-0.06056194
210	0x3dff8ff0	0.12478626
211	0x3dfa070e	0.12208377
212	0xbdc11260	-0.09427333
213	0xbdcf8810	-0.10133374
214	0xbdc20bd4	-0.09474912
215	0xba1e0800	-0.0006028414
216	0xbd0282c4	-0.03186299
217	0xbda7904e	-0.08181821
218	0xbd37a3e0	-0.044834018
219	0x3cc17718	0.023616359
220	0xbd85c1f4	-0.06531134
221	0x3ce2e688	0.027697816
222	0xbcead1c8	-0.028664485
223	0xbd7818b0	-0.06057042
224	0x3c8caec8	0.017173186
225	0x3dd27f84	0.10278228
226	0xbdad1388	-0.08450991
227	0x3bbe3200	0.0058043003
228	0xbd3ccf20	-0.046095967
229	0x3dfb36e4	0.12266329
230	0xbdf2e226	-0.11859541
231	0xbdf56ad2	-0.11983265
232	0x3dfc4230	0.12317312
233	0xbda1f7f8	-0.079086244
234	0x3cc45320	0.023965418
235	0xbc30c140	-0.010788262
236	0xbcd7b678	-0.026332125
237	0xbce4b548	-0.027918473
238	0x3da2ac3c	0.07943007
239	0x3bc3c6c0	0.0059746206
240	0xbdf93ece	-0.12170182
241	0xbd9721d8	-0.07379502
242	0xbd2e8a7c	-0.042612538
243	0x3d80d2ca	0.06290205
244	0xbda5aa8e	-0.08089171
245	0x3df1632e	0.11786495
246	0xbce41328	-0.027841166
247	0xbcb7df18	-0.022445247
248	0x3dc89742	0.09794475
249	0x3d80aae6	0.06282596
250	0x3dd91e6a	0.10601504
251	0x3d9414ee	0.072305545
252	0xbd1b5134	-0.03791924
253	0xbda9d954	-0.08293405
254	0xbc1860a0	-0.009300381
255	0x3dd3e00e	0.103454694

fc2.bias f4 [64]
0	0x3dd339b2	0.10313739
1	0x3f12acf9	0.57295185
2	0xbc33ef01	-0.010982276
3	0xbd94b2fa	-0.072606996
4	0x3f205e5f	0.62644
5	0xbdb725a7	-0.089427285
6	0xbd040134	-0.03222771
7	0xbe0198e6	-0.12655982
8	0x3d8ea05e	0.06964181
9	0xbe075103	-0.13214497
10	0xbdb1e46c	-0.08686146
11	0x3d3bbaf7	0.0458326
12	0xbdbf7d88	-0.09350115
13	0x3cf4cd60	0.029883087
14	0x3f241dbf	0.6410789
15	0x3ec7d003	0.39025888
16	0xbced44a4	-0.028963394
17	0xbd45372a	-0.04814831
18	0x3f19df0f	0.60105985
19	0xbc8d9ea1	-0.017287554
20	0xbd130442	-0.035892732
21	0xbd12a06e	-0.03579753
22	0x3aa4a511	0.0012561401
23	0x3f127c21	0.57220656
24	0x3cc0c2a2	0.023530308
25	0x3d7a921c	0.061174497
26	0xbc8877b1	-0.016658636
27	0xbcca574a	-0.024699826
28	0x3d56fcb8	0.052487105
29	0x3c98ee99	0.01866846
30	0xbe0e715c	-0.1391043
31	0x3eea16b5	0.4572045
32	0x3d588870	0.052864492
33	0xbd9fa941	-0.077959545
34	0x3d22b0a9	0.039719258
35	0xbcc4c13e	-0.024017926
36	0x3f0ae209	0.5425115
37	0xbd6e72eb	-0.058215063
38	0x3d91f886	0.0712748
39	0x3dde6d33	0.10860672
40	0x3ce49891	0.02790478
41	0x3dd6c542	0.10486843
42	0x3ef50eeb	0.47862944
43	0x3f3b311f	0.7312183
44	0x3d9b17b9	0.07572884
45	0x3f17ec5c	0.5934503
46	0x3f11ae14	0.5690625
47	0xbd06ab28	-0.03287807
48	0x3eb38863	0.35064992
49	0x3df79eda	0.120908454
50	0x3e2cd720	0.16878939
51	0xbdb77f72	-0.08959855
52	0x3d1a6db5	0.03770228
53	0x3da10d76	0.078638956
54	0x3d2d8afd	0.042368878
55	0xbe4b80a2	-0.19873288
56	0x3f0ac6a5	0.5420936
57	0xbcceced0	-0.0252451
58	0x3d959a2d	0.07304797
59	0x3edbee09	0.42955044
60	0x3c81d116	0.01584677
61	0xbac02a80	-0.0014661103
62	0xbccd43e3	-0.025056785
63	0x3d965663	0.07340696

fc3.weight f4 [4, 64]
0	0xbf18f336	-0.5974611
1	0x3e3167bb	0.17324726
2	0xbf20a3f5	-0.6275018
3	0xbd4d01bc	-0.050050482
4	0x3deff552	0.11716713
5	0xbf13bff5	-0.5771478
6	0xbcbf22f8	-0.023332104
7	0xbd4a1340	-0.049334764
8	0xbf22e8fb	-0.6363675
9	0xbdf8e92c	-0.12153849
10	0x3da3a469	0.07990343
11	0xbedb91b5	-0.42884603
12	0x3db221de	0.08697866
13	0x3dc16fea	0.09445174
14	0x3e9c09b5	0.30476156
15	0x3f92b959	1.1462814
16	0xbf24781a	-0.6424576
17	0x3db76b80	0.08956051
18	0x3ed5ec5c	0.4178189
19	0xbcfd51a3	-0.030922716
20	0xbcf41113	-0.029793298
21	0xbcc09199	-0.023506926
22	0x3d85d488	0.06534678
23	0x3ec3f91e	0.38276
24	0x3d8b426e	0.0679978
25	0xbf2c937e	-0.67412555
26	0xbef64156	-0.48096722
27	0x3d0b9de3	0.03408612
28	0x3d78ecd8	0.060772747
29	0xbf049040	-0.5178261
30	0x3d9a07f4	0.07521048
31	0x3f04dbc1	0.5189782
32	0xbed88e22	-0.4229594
33	0xbd91c041	-0.07116748
34	0x3ddd2ff5	0.10800163
35	0xbf097d8d	-0.537072
36	0x3e91a9f6	0.28449982
37	0xbf0eb336	-0.55742204
38	0xbf01bf91	-0.5068293
39	0xbf156665	-0.58359367
40	0xbea453ce	-0.32095188
41	0xbf10e706	-0.56602514
42	0x3f818fd9	1.0122024
43	0x3ca31253	0.019906199
44	0xbef00515	-0.46878877
45	0x3ef506f4	0.47856867
46	0x3e4fc8d7	0.20291458
47	0x3cd5ce68	0.026099399
48	0x3fba1b8d	1.4539658
49	0x3d94bb10	0.07262242
50	0xbf32f399	-0.6990295
51	0xbdffd8f4	-0.124925524
52	0xbf2da82f	-0.6783475
53	0xbee87acd	-0.4540619
54	0xbf1d0dcc	-0.6134918
55	0xbf070aa2	-0.527506
56	0x3ed73c21	0.42038062
57	0xbd41c45c	-0.047306404
58	0xbf25677f	-0.6461105
59	0x3e6edf08	0.23327267
60	0xbd2c9ba2	-0.04214061
61	0xbd9d86b2	-0.07691707
62	0xbf047c4f	-0.5175218
63	0x3db4cc38	0.08828014
64	0xbf186011	-0.59521586
65	0x3eac378e	0.33636135
66	0xbf008e5d	-0.5021723
67	0xbd542244	-0.05179049
68	0x3ebd0f88	0.36925912
69	0xbf18db43	-0.59709567
70	0x3dd1f080	0.1025095
71	0x3c5f8d8c	0.013644587
72	0xbf207726	-0.62681806
73	0xbd53bf38	-0.051696032
74	0xbb6aeaee	-0.0035845595
75	0xbf1c174c	-0.6097305
76	0xbdc8b80c	-0.09800729
77	0xbd5b10e4	-0.053482905
78	0x3e7c5656	0.2464231
79	0x3f2d3806	0.6766361
80	0xbef91c5d	-0.48654452
81	0x3db6c864	0.0892494
82	0x3ed18fb2	0.40929943
83	0xbcec2958	-0.028828308
84	0xbd9bd61f	-0.076092
85	0xbd4494d1	-0.047993485
86	0x3d068e1c	0.03285037
87	0x3e9b221a	0.30299455
88	0xbd84470c	-0.064588636
89	0xbf3e20bc	-0.742687
90	0xbf047895	-0.51746494
91	0xbca5b32e	-0.020227041
92	0x3d936bbe	0.071982846
93	0xbf3866a0	-0.72031593
94	0x3d8cc2b0	0.06873071
95	0x3e904137	0.28174755
96	0xbf0f0fbe	-0.55883396
97	0xbe0ca7a4	-0.13735825
98	0x3defc8bd	0.1170821
99	0xbf305dcd	-0.6889313
100	0x3eb17ee7	0.3466713
101	0xbf20ab21	-0.6276112
102	0xbf383435	-0.7195466
103	0xbf3be5fc	-0.73397803
104	0xbee1aaf1	-0.4407573
105	0xbf3ce478	-0.73786116
106	0x3f257563	0.6463224
107	0x3f4a3f3a	0.79002726
108	0xbf3b258a	-0.73104155
109	0x3eb7b926	0.35883445
110	0x3ec786de	0.38970083
111	0x3a52e700	0.0008045286
112	0x3f3c1b90	0.7347956
113	0x3b8301e0	0.0039980263
114	0xbf078796	-0.5294126
115	0x3d628a38	0.055307597
116	0xbefb61ac	-0.49097955
117	0xbf024b86	-0.5089649
118	0xbf1bb204	-0.60818505
119	0xbf08c10e	-0.5341958
120	0x3ea8c3b5	0.32961813
121	0xbdc18a30	-0.09450185
122	0xbf1c8718	-0.61143637
123	0x3e8492d7	0.2589328
124	0x3db26a5d	0.087116934
125	0x3de39e6a	0.111141995
126	0xbf1a2f65	-0.6022857
127	0x3dc9b599	0.0984909
128	0xbc975135	-0.01847134
129	0x3ee294e9	0.44254234
130	0xbf08c076	-0.5341867
131	0x3dcd9af8	0.100393236
132	0x3f13df07	0.5776219
133	0xbf4d26c2	-0.80137265
134	0xbd86ee88	-0.06588465
135	0x3b1a1080	0.002350837
136	0xbf35ba7a	-0.70987666
137	0xbd2897a4	-0.04116024
138	0x3dbf12c8	0.09329754
139	0xbf2aa1bd	-0.66653043
140	0x3ddef1f2	0.10885991
141	0x3a7b3500	0.0009582788
142	0x3e858692	0.26079232
143	0x3fdf6ac0	1.7454453
144	0xbf0ad343	-0.5422861
145	0x3cac7208	0.021050468
146	0x3e8d6ecd	0.27623597
147	0x3d5694fe	0.052388184
148	0xbe46c151	-0.19409682
149	0x3d9e9e1d	0.077450015
150	0x3dde81eb	0.10864624
151	0x3ebd2e1f	0.3694925
152	0x3d94925f	0.072544806
153	0xbf0a92a6	-0.5413002
154	0xbf1ca490	-0.611886
155	0xbdebf8c8	-0.11522061
156	0x3c86bf90	0.016448766
157	0xbf49b744	-0.78795266
158	0xbca15972	-0.019695971
159	0x3e4029ad	0.18765898
160	0x3e3f164e	0.18660852
161	0x3ba83b76	0.0051340414
162	0x3db13972	0.08653535
163	0xbee5a323	-0.44851026
164	0x3ec4cb2b	0.38436255
165	0xbf7a19d9	-0.9769569
166	0xbf0f1538	-0.5589175
167	0xbf41ea92	-0.7574855
168	0xbf5ddf97	-0.86669296
169	0xbefef0d4	-0.49793112
170	0x3ea6027f	0.3242378
171	0x3e09d2aa	0.13459268
172	0xbf76484f	-0.96204084
173	0x3e86f75f	0.26360604
174	0x3eb00f96	0.3438689
175	0xbdb5bc6a	-0.08873828
176	0x3fd0802c	1.6289115
177	0xbccac4d0	-0.02475205
178	0xbf3a8a48	-0.7286725
179	0x3cce9130	0.025215715
180	0xbf2f4171	-0.6845923
181	0xbe82c68c	-0.25542104
182	0xbf4e72f6	-0.80644166
183	0xbf0b4805	-0.5440677
184	0x3eb5dcea	0.35520107
185	0x3bfc8800	0.007706642
186	0xbf0fe8ff	-0.562149
187	0x3ea690c7	0.3253233
188	0x3be62564	0.0070235003
189	0xbcf26ab0	-0.029591888
190	0xbf2aa35d	-0.6665552
191	0xbce6a8d6	-0.02815668
192	0xbef52945	-0.4788305
193	0x3e37240c	0.17884845
194	0xbf1a1687	-0.60190624
195	0x3dc80014	0.0976564
196	0x3f059321	0.52177626
197	0xbef305f0	-0.47465467
198	0x3b815a60	0.003947541
199	0x3c8d5910	0.017254382
200	0xbed3dadd	-0.41377917
201	0xbd911819	-0.070846744
202	0xbd2956ff	-0.04134273
203	0xbf2b3061	-0.66870695
204	0xbdc94378	-0.09827322
205	0xbcc0abc8	-0.023519412
206	0x3e996206	0.29957598
207	0x3f4d5f4b	0.8022353
208	0xbecb93a8	-0.3976109
209	0xbbbb4b0c	-0.0057157334
210	0x3eae77b9	0.34075716
211	0x3dac6239	0.08417172
212	0xbd6265cc	-0.055272862
213	0xbcf5e4db	-0.030016353
214	0xbc1b4f85	-0.009479408
215	0x3e642c3c	0.22282499
216	0xbd425096	-0.047440134
217	0xbf24a3ca	-0.6431242
218	0xbf0cc064	-0.54981065
219	0xbd8c2035	-0.068420805
220	0x3dbeb376	0.09311573
221	0xbf558548	-0.83406496
222	0x3de90986	0.113787696
223	0x3ed76990	0.42072725
224	0xbf09b4f3	-0.5379173
225	0x3df78297	0.12085455
226	0xbd0b2666	-0.033972166
227	0xbf25a683	-0.647072
228	0x3ea43ac4	0.32076085
229	0xbf06ec6a	-0.5270449
230	0xbf27bfd6	-0.65527093
231	0xbf0951bd	-0.5364035
232	0xbf0f1daf	-0.5590467
233	0xbf27bf7e	-0.6552657
234	0x3f85a963	1.0442318
235	0x3d632a6d	0.055460382
236	0xbf3f8b76	-0.74822176
237	0x3f00adab	0.50264996
238	0x3e80e9b0	0.2517829
239	0xbac01500	-0.0014654696
240	0x3f962ae1	1.1731836
241	0xbd8f10aa	-0.069856
242	0xbedcc61b	-0.43119892
243	0xbdd498f4	-0.10380736
244	0xbe86e4ca	-0.26346427
245	0xbeceed1b	-0.40415272
246	0xbf056c0b	-0.52117985
247	0xbf137d66	-0.5761322
248	0x3ec0dfd8	0.3767078
249	0x3d359c74	0.04433866
250	0xbf082ff1	-0.5319815
251	0x3ea430b5	0.3206841
252	0xbde60739	-0.11231846
253	0xbdffec88	-0.12496287
254	0xbf05291b	-0.52015847
255	0x3dbf3d4a	0.09337862

fc3.bias f4 [4]
0	0x3e9f403e	0.311037
1	0x3efd5bdb	0.49484143
2	0xbdcf41f9	-0.10120005
3	0x3e80a7b3	0.25127944
