dqn_goal_full_empty/run-demo/checkpoint.pth (torch, 21285 bytes, 6 tensors)

fc1.weight f4 [64, 4]
0	0xbffa97be	-1.9577558
1	0x3df994e0	0.12186599
2	0xbed2b316	-0.41152257
3	0xbea3db00	-0.3200302
4	0xbfe8fc8f	-1.8202075
5	0x3d658488	0.056034595
6	0x3dac8c82	0.08425237
7	0x3f113e6b	0.5673587
8	0xc0069854	-2.1030474
9	0x3dc2d2f5	0.09512893
10	0xbe1abbac	-0.15110654
11	0xbeb7baa3	-0.3588458
12	0xbef491b8	-0.47767425
13	0xbea98b52	-0.33114105
14	0xbe530ee8	-0.20611155
15	0x3c97bb00	0.018521786
16	0x3f82b009	1.0209972
17	0x3e6cfcc9	0.23143305
18	0xbead8d8c	-0.33897054
19	0xbe80b857	-0.2514064
20	0x3fb93475	1.4469134
21	0x3eb82f09	0.35973385
22	0xbeb078e2	-0.34467226
23	0x3e257af5	0.16160186
24	0x3f74dea7	0.9565224
25	0xbc2fdf11	-0.0107343355
26	0x3e5ce048	0.21569932
27	0xbf4166f2	-0.7554771
28	0xbdb375d7	-0.087627105
29	0xbe44c43f	-0.19215487
30	0xbecdd21f	-0.40199372
31	0x3f0ea87a	0.55725825
32	0xbea5ef1a	-0.32408983
33	0xbe6bb0c0	-0.23016644
34	0xbeb2da1a	-0.34932023
35	0xbeefc276	-0.4682805
36	0xbf7020fb	-0.93800324
37	0x3ef0ca62	0.47029406
38	0x3ed476fe	0.41497034
39	0x3ed8663f	0.42265508
40	0x3cd76a40	0.026295781
41	0xbe833f3a	-0.25634176
42	0x3dad3ec0	0.08459234
43	0xbeef069e	-0.46684736
44	0xbedcf313	-0.431542
45	0xbebbab71	-0.36654237
46	0x3ed41e8f	0.41429564
47	0x3e961926	0.29316062
48	0x3fa295c2	1.2701952
49	0xbc670894	-0.014101166
50	0x3e124682	0.14284709
51	0x3f16cfcb	0.58910817
52	0x3fc43d75	1.5331255
53	0x3cbbc617	0.022921605
54	0x3e68bd4a	0.22728458
55	0xbef0f0a6	-0.470586
56	0x3dbed0f8	0.093172014
57	0xbec67a6c	-0.38765275
58	0xbeb16e18	-0.34654307
59	0xbe843ed2	-0.25829178
60	0x3f6c9e30	0.92428875
61	0x3df376a0	0.1188786
62	0xbe97a46a	-0.29617625
63	0xbfe89eaa	-1.817342
64	0x3e8c896e	0.274486
65	0xbd813f20	-0.06310868
66	0x3c9c6440	0.019090772
67	0x3ded4400	0.115852356
68	0x3fb42557	1.4073895
69	0x3eda0292	0.42580086
70	0xbf10263c	-0.5630834
71	0xbed02b4b	-0.4065803
72	0xbfbee01b	-1.4912142
73	0x3ec13fb7	0.37743923
74	0x3eff994c	0.49921644
75	0x3e042493	0.12904577
76	0x3dcbca78	0.09950727
77	0xbede9cf8	-0.43479133
78	0x3d3c6690	0.04599625
79	0xbea027ac	-0.31280267
80	0xbf94d34c	-1.1626983
81	0x3eded4da	0.43521768
82	0x3eac0a47	0.3360159
83	0xbf18a80f	-0.5963144
84	0x3dbfaa08	0.09358603
85	0xbdac80c8	-0.084230006
86	0xbda882b8	-0.082280576
87	0xbe6a5f1c	-0.22887844
88	0x3fa6fdbd	1.3046185
89	0xbe298c97	-0.16557537
90	0x3edfb252	0.43690735
91	0x3e817616	0.25285405
92	0x3f6f7a81	0.935463
93	0x3e41a53a	0.18910685
94	0xbf22274f	-0.6334123
95	0xbf93891d	-1.1526219
96	0x3f68c09c	0.909189
97	0x3da96d49	0.082727976
98	0xbf2785d6	-0.6543859
99	0xbfa54731	-1.2912351
100	0x3fcb5856	1.5886333
101	0x3e8e358e	0.27775234
102	0xbe5f3eb0	-0.21801257
103	0xbf213dab	-0.6298472
104	0xbef3dd78	-0.47629905
105	0xbc133e80	-0.008987069
106	0xbec0c878	-0.37652946
107	0xbec577a2	-0.38567835
108	0x3fa1b032	1.2631896
109	0x3d1db43f	0.038501974
110	0xbe8f378d	-0.2797207
111	0x3eb06a0a	0.344559
112	0xbf902c8e	-1.1263597
113	0x3f0325c1	0.5122948
114	0x3f168961	0.58803374
115	0xbec09eb3	-0.37621078
116	0x3f8f59cb	1.1199278
117	0xbca08810	-0.01959613
118	0x3b313a3e	0.0027042772
119	0xbd124463	-0.03570975
120	0xbfe7e02a	-1.8115284
121	0x3d97de19	0.07415409
122	0xbe79d1cc	-0.24396437
123	0x3d88262a	0.06647904
124	0xbef59156	-0.47962445
125	0xbe97bba0	-0.29635334
126	0xbe104803	-0.1408997
127	0xbe7966ec	-0.24355668
128	0xbe331d5c	-0.17491668
129	0xbed1d2ba	-0.40981084
130	0xbdd9d200	-0.106357574
131	0x3ddae2f8	0.10687822
132	0xbea6c676	-0.3257329
133	0xbcd23440	-0.02565968
134	0x3e41c6fc	0.18923563
135	0xbd5288f0	-0.051400125
136	0x3c63ac80	0.013896108
137	0xbd30adc0	-0.04313445
138	0x3dcf3d10	0.101190686
139	0x3ea2c660	0.31791973
140	0x3fca4523	1.5802349
141	0x3e924949	0.28571537
142	0x3ddd0cda	0.10793467
143	0xbef88fd2	-0.48547226
144	0xbed93bb6	-0.42428368
145	0xbeb108a8	-0.34576917
146	0x3f066ead	0.5251263
147	0xbb546b00	-0.003241241
148	0xbe7e7cdc	-0.24852318
149	0xbec42d02	-0.38315588
150	0xbeef9400	-0.46792603
151	0xbed810ec	-0.4220041
152	0xbf3ab83d	-0.72937375
153	0x3eb73e1c	0.35789573
154	0x3ed71fc4	0.42016423
155	0xbf1c2926	-0.6100029
156	0x3e9fb02e	0.31189102
157	0xbec8528a	-0.39125472
158	0xbdd87bf0	-0.10570514
159	0xbe4f9a1c	-0.20273632
160	0x3faa55f6	1.3307483
161	0xbc6e19cb	-0.014532517
162	0xbf07ea01	-0.53091437
163	0xbf990e0a	-1.1957409
164	0xbda03c28	-0.07823974
165	0x3bd3e180	0.0064660907
166	0xbe6896b8	-0.22713745
167	0x3e40deb8	0.1883496
168	0xbea94e38	-0.3306749
169	0xbce026bf	-0.027362226
170	0x3e59f772	0.21285799
171	0xbe50d738	-0.203946
172	0x3fd1c3e4	1.6387906
173	0x3e1456c4	0.14486223
174	0xbee707ae	-0.45123047
175	0x3d0b26d6	0.033972584
176	0xbd6c53f0	-0.057697237
177	0xbebed23a	-0.37269765
178	0x3f858348	1.0430689
179	0xbecedf54	-0.4040476
180	0x3fd54d3d	1.6664196
181	0xbb8a5f19	-0.0042227623
182	0x3e6f041e	0.23341414
183	0x3e5b781f	0.21432541
184	0xbfdca9ff	-1.7239379
185	0x3dc0ac49	0.09407861
186	0xbdf63f00	-0.12023735
187	0xbef8d4e0	-0.4859991
188	0xc00f063c	-2.2347555
189	0x3da2aba8	0.07942897
190	0x3f11c953	0.5694782
191	0x3f011142	0.5041696
192	0xc08dbd7d	-4.429381
193	0x3e080fc3	0.13287263
194	0xbe9b13c4	-0.30288517
195	0xbf29a936	-0.6627382
196	0xc0075be4	-2.1149836
197	0x3ded4d22	0.115869775
198	0xbe988dc4	-0.2979566
199	0xbdded13f	-0.10879754
200	0xbfb9260c	-1.4464736
201	0x3e12192c	0.14267415
202	0xbec183fa	-0.37796003
203	0xbf417462	-0.7556821
204	0x3f820e97	1.0160702
205	0x3e9c4b06	0.30525988
206	0xbf0111a7	-0.5041756
207	0x3d2f4744	0.042792574
208	0x3f77e442	0.9683267
209	0x3db30030	0.0874027
210	0xbdcb46b0	-0.09925592
211	0xbf01451e	-0.5049609
212	0x3d807a40	0.06273317
213	0xbde9d330	-0.11417234
214	0xbb663e00	-0.003513217
215	0x3d82a7c0	0.06379652
216	0xbec83e98	-0.39110255
217	0xbe862d7a	-0.2620657
218	0x3eceb7d8	0.40374637
219	0xbecfc186	-0.40577334
220	0xbf26e7a8	-0.6519723
221	0x3f08031c	0.53129745
222	0x3e28b76c	0.1647622
223	0x3e883476	0.26602525
224	0x3f1d2f96	0.61400735
225	0x3e44d83a	0.19223109
226	0xbf0db395	-0.55352145
227	0xbf23616f	-0.63820547
228	0xbe2bc8cc	-0.16775817
229	0xbd97a438	-0.07404369
230	0x3bb33680	0.0054691434
231	0x3ed32696	0.41240376
232	0xbf8f29fa	-1.1184685
233	0x3ece5b87	0.40304205
234	0x3ed093f3	0.40737876
235	0xbf5ff7a4	-0.87487245
236	0x3f7cec31	0.987979
237	0xbd816ac5	-0.06319193
238	0xbd6fc193	-0.058534216
239	0x3db82458	0.08991307
240	0x3f5b90a0	0.85767555
241	0x3eb85d73	0.36008796
242	0xbe24d228	-0.16095793
243	0xbe4f5240	-0.2024622
244	0x3f15e5c7	0.5855374
245	0xbe8223fe	-0.25418085
246	0x3f4836c2	0.78208554
247	0xbed3b130	-0.4134612
248	0x3fc7797e	1.5583951
249	0xbbfff5d8	-0.0078112893
250	0xbec4d90f	-0.38446853
251	0x3e15b58f	0.1462004
252	0x3fb07cd5	1.3788096
253	0xbd879644	-0.06620458
254	0xbe635d0d	-0.22203465
255	0xbe6788ff	-0.22610854

fc1.bias f4 [64]
0	0xbf866636	-1.0499942
1	0x3ebfed96	0.3748595
2	0xbe82eff5	-0.25573698
3	0xbeaad6d0	-0.33367014
4	0xbe8eb434	-0.2787186
5	0x3f417a10	0.7557688
6	0x3f836bbb	1.0267252
7	0x3f37e5af	0.71834844
8	0x3e39b6d8	0.18136156
9	0x3ef67de9	0.48142937
10	0xbe0f13d4	-0.13972408
11	0x3f4d8c0d	0.80291826
12	0x3ee13e22	0.43992716
13	0x3e9acb05	0.30233017
14	0xbe72401c	-0.23657268
15	0xbdcff3ee	-0.10153948
16	0xbef20a42	-0.4727345
17	0x3f0b2ed0	0.54368305
18	0xbf8f1a07	-1.1179818
19	0xbee43e50	-0.4457879
20	0x3f43b065	0.7644103
21	0xbea63fd0	-0.3247056
22	0x3f883f82	1.0644381
23	0x3f2953c9	0.6614347
24	0x3f20072a	0.6251093
25	0xbdaae18d	-0.08343802
26	0xbeceee2c	-0.40416086
27	0x3f68e2ab	0.9097087
28	0x3f215dd3	0.6303379
29	0x3f44a25c	0.7681024
30	0xbe9b0c92	-0.30283028
31	0x3e06b32d	0.13154288
32	0xbdea2a18	-0.1143381
33	0xbe43823c	-0.19092649
34	0xbe9bea52	-0.3045221
35	0x3f1f0f5a	0.621328
36	0x3f540784	0.8282397
37	0xbc28fd40	-0.010314286
38	0x3ec18c47	0.37802336
39	0xbe9dce58	-0.3082149
40	0x3eec72c2	0.46181303
41	0xbebe9294	-0.37221205
42	0x3f866dd4	1.0502267
43	0xbe3088c3	-0.1723967
44	0x3ebee267	0.37282106
45	0x3e188118	0.14892995
46	0xbf2b94c5	-0.6702388
47	0x3e70c522	0.235127
48	0x3eeb76ba	0.4598902
49	0xbf08ffe4	-0.5351546
50	0xbe3a18a6	-0.18173465
51	0x3efcb11b	0.4935387
52	0x3f611613	0.8792431
53	0xbd80e658	-0.062939346
54	0xbed1dd9a	-0.4098938
55	0x3e0766e8	0.1322285
56	0x3f4496a9	0.7679239
57	0xbe3ad12c	-0.18243855
58	0x3f35ec7d	0.7106398
59	0x3fab3221	1.3374673
60	0xbf12a06f	-0.5727605
61	0x3f1a83ba	0.6035725
62	0x3e7f034a	0.24903598
63	0x3f5ddfe1	0.8666974

fc2.weight f4 [64, 64]
0	0xbd58941c	-0.052875623
1	0x3c04c260	0.008102983
2	0xbe4793db	-0.19489996
3	0x3c20f2e0	0.009823531
4	0x3dc198ac	0.09452948
5	0x3dfdc5e9	0.12391264
6	0x3e108368	0.14112628
7	0x3fb97527	1.4488877
8	0x3d6f1c7c	0.058376774
9	0xbda94d10	-0.08266652
10	0xbdd424ec	-0.10358605
11	0xbc5f6aaf	-0.013636275
12	0x3efceee9	0.49401024
13	0x3e443289	0.19159903
14	0xbdb0f4b2	-0.08640422
15	0x3c8011e6	0.015633535
16	0x3dc152aa	0.09439595
17	0x3e03ac9f	0.12858818
18	0x3dc4dcf6	0.096124575
19	0x3dc65644	0.096844226
20	0xbd88d0cd	-0.066804506
21	0xbd33aea0	-0.043867707
22	0x3f8a9a5e	1.0828359
23	0x3da27e7a	0.0793428
24	0xbd8233bc	-0.06357524
25	0x3dfc426a	0.12317355
26	0x3d776090	0.060394824
27	0x3e160d5e	0.14653537
28	0xbde29beb	-0.11064895
29	0x3e547957	0.20749412
30	0xbea44806	-0.320862
31	0xbcd3e504	-0.02586604
32	0xbcb84258	-0.022492573
33	0xbd33a117	-0.0438548
34	0x3cb5e280	0.02220273
35	0x3d90848a	0.0705653
36	0x3cadd2ed	0.021218741
37	0x3d79a2f4	0.06094642
38	0xbdf3abb0	-0.11897981
39	0x3ce74688	0.028231874
40	0x3c9d49c2	0.01920021
41	0xbdfc8dba	-0.1233172
42	0x3fc1f44e	1.5152681
43	0x3e0fa72c	0.14028615
44	0xbd0fca19	-0.035104845
45	0x3f0abc51	0.541936
46	0x3b151e31	0.0022753591
47	0xbe001610	-0.12508416
48	0xbf103a58	-0.56339025
49	0xbd8637bc	-0.06553599
50	0xbdd4dab5	-0.103932776
51	0x3da908f5	0.082536615
52	0xbd2b1fb2	-0.041778274
53	0xbd79ce38	-0.06098768
54	0xbdf751c4	-0.120761424
55	0xbdbdf888	-0.09275919
56	0x3db0f96a	0.08641322
57	0x3dd19a42	0.102345005
58	0x3d838d9a	0.06423493
59	0xbe26dc59	-0.16294993
60	0x3dc97d66	0.09838371
61	0xbec488cd	-0.3838562
62	0x3ee41dfc	0.44554126
63	0xbe0343f4	-0.12818891
64	0xbe8e2efc	-0.2777022
65	0xbe6d38f3	-0.23166256
66	0xbd8d3040	-0.068939686
67	0x3d9f2458	0.07770604
68	0x3e05963e	0.13045594
69	0x3ea76f0d	0.32701913
70	0x3f4491cb	0.7678496
71	0x3f82f358	1.0230513
72	0xbd904f4a	-0.07046373
73	0xbe76159b	-0.2403168
74	0xbdc4fcb2	-0.0961851
75	0x3db36466	0.08759384
76	0x3f546939	0.8297306
77	0x3f052d67	0.52022403
78	0xbd9424c4	-0.07233575
79	0x3e90ee29	0.28306702
80	0x3da3b58c	0.07993612
81	0x3e741ecb	0.23839872
82	0xbe6a9dcf	-0.22911762
83	0x3deb46b8	0.11488098
84	0xbe8260ea	-0.25464565
85	0xbdc2575a	-0.09489317
86	0x3f9b05bb	1.2111124
87	0x3ecad821	0.39618018
88	0x3ea3bf31	0.31981805
89	0x3e9e82ce	0.3095917
90	0xbd9174d6	-0.07102363
91	0x3efa1769	0.48845986
92	0xbe43dd9c	-0.19127506
93	0x3f3eeed1	0.74583155
94	0x3f99d436	1.2017887
95	0xbb6a99e0	-0.0035797283
96	0xbd0afadc	-0.033930644
97	0x3cbff1ef	0.023430793
98	0x3c43feb0	0.011962578
99	0x3ed5337a	0.41640836
100	0x3c946866	0.018116187
101	0xbd9e108c	-0.07718
102	0xbea08d34	-0.3135773
103	0x3d757f58	0.059935898
104	0x3f6eaecb	0.9323546
105	0xbde9f7e0	-0.114242315
106	0xbebd848a	-0.37015182
107	0x3e56da9c	0.2098183
108	0xbdc15d39	-0.09441609
109	0x3f2faac3	0.68619937
110	0xbeac03e1	-0.3359671
111	0xbe8fa875	-0.2805821
112	0x401a2e34	2.40907
113	0xbe307803	-0.17233281
114	0xbeb63189	-0.35584667
115	0x3e328be7	0.17436181
116	0x3eec18da	0.4611271
117	0xbdc32746	-0.09528975
118	0x3d7e5dec	0.06210129
119	0xbec4081f	-0.38287446
120	0x3de0901d	0.109649874
121	0xbdf8bec0	-0.12145758
122	0xbe8d0509	-0.27542904
123	0x3fa5c083	1.2949375
124	0xbdcbb641	-0.099468715
125	0x3e4ecaa6	0.20194492
126	0x3f2207c8	0.63293123
127	0x3f853286	1.0406044
128	0xbd3a808d	-0.04553275
129	0xbe3a04a7	-0.18165837
130	0x3cc62a02	0.024189953
131	0x3d89d76e	0.06730543
132	0x3df5b22c	0.11996874
133	0x3d8782b6	0.06616728
134	0x3e7b1217	0.2451862
135	0x3fbd808c	1.4804854
136	0x3bdc2320	0.0067180544
137	0x3cc6a0fc	0.024246685
138	0xbdcd44ac	-0.10022864
139	0xbe9b5e58	-0.30345416
140	0x3ea96a66	0.33088988
141	0x3dd97da7	0.106196694
142	0x3cdce8a0	0.026966393
143	0xbd03f6d8	-0.03221783
144	0x3d233510	0.039845526
145	0x3d8ccee3	0.06875398
146	0xbc93a119	-0.018021153
147	0xbdab490c	-0.08363542
148	0xbdec5dd6	-0.11541335
149	0xbd1df5e4	-0.038564578
150	0x3ecd728e	0.4012646
151	0x3e310775	0.17288001
152	0x3e2e79d9	0.17038669
153	0xbc2d628e	-0.010582579
154	0x3d338400	0.043827057
155	0xbd1dd38f	-0.038531836
156	0xbe07a10a	-0.13245025
157	0x3ea049af	0.31306216
158	0xbf2ab7d8	-0.66686773
159	0xbe803c25	-0.25045887
160	0xbdb4b7f8	-0.08824152
161	0xbebd4024	-0.36962998
162	0xbdd2dd48	-0.10296112
163	0x3daf00a1	0.08545042
164	0xbeb3a74a	-0.3508857
165	0x3dc50494	0.09620014
166	0x3d64ef01	0.055891994
167	0x3d8da7dc	0.06916782
168	0x3f610520	0.87898445
169	0xbd1e4c94	-0.03864725
170	0x3feacf0f	1.8344439
171	0x3ccc38e5	0.024929473
172	0xbf13462d	-0.57528955
173	0x3f05d858	0.5228324
174	0x3d968d8c	0.07351217
175	0xbd5fe850	-0.05466491
176	0xbf2fbd53	-0.6864826
177	0xbe0a7adb	-0.13523428
178	0x3df74cb2	0.12075175
179	0x3dd88d70	0.10573852
180	0xbcb2116f	-0.021736829
181	0x3db48e6e	0.08816229
182	0x3d804bf8	0.0626449
183	0x3d29ae66	0.041426085
184	0x3defe9bb	0.117145024
185	0xbd89f8a6	-0.06736879
186	0x3d0c4f94	0.03425558
187	0xbe883b74	-0.2660786
188	0xbd86da3b	-0.06584593
189	0xbf4595bb	-0.77181596
190	0x3f11741d	0.568178
191	0xbe982fef	-0.2972407
192	0xbd0e0e88	-0.034681827
193	0xbd3edf14	-0.046599463
194	0x3d00e540	0.03146863
195	0x3d359a68	0.044336706
196	0xbd9d99ff	-0.07695388
197	0xbb9e5cd5	-0.004832844
198	0x3d67aada	0.05655942
199	0xbce7fd05	-0.028318891
200	0x3d1bd1a8	0.03804174
201	0xbcf6f9b8	-0.030148372
202	0x3d3374b0	0.043812454
203	0xbdb971e6	-0.090549275
204	0xbdb71019	-0.08938617
205	0xbda27883	-0.07933142
206	0x3deb444c	0.11487636
207	0xbd4ad335	-0.04951783
208	0xb9b2f000	-0.0003412962
209	0xbd9c8efb	-0.07644459
210	0x3dff8ff0	0.12478626
211	0x3dfa070e	0.12208377
212	0xbdc11260	-0.09427333
213	0xbdcf8810	-0.10133374
214	0xbdc20bd4	-0.09474912
215	0xbc870c51	-0.016485365
216	0xbd4390bf	-0.047745463
217	0xbdc81759	-0.09770078
218	0xbd37a3e0	-0.044834018
219	0x3bfd6b89	0.0077337665
220	0xbd85c1f4	-0.06531134
221	0x3c4194c5	0.011815255
222	0xbcead1c8	-0.028664485
223	0xbd7818b0	-0.06057042
224	0x3c8caec8	0.017173186
225	0x3dd27f84	0.10278228
226	0xbdad1388	-0.08450991
227	0xbc251f94	-0.01007833
228	0xbd3ccf20	-0.046095967
229	0x3dfb36e4	0.12266329
230	0xbdf2e226	-0.11859541
231	0xbdf56ad2	-0.11983265
232	0x3ddbbb21	0.107290514
233	0xbda1f7f8	-0.079086244
234	0x3c048351	0.008087949
235	0xbcda7cc0	-0.026670814
236	0xbcd7b678	-0.026332125
237	0xbd3368bf	-0.043801066
238	0x3da2ac3c	0.07943007
239	0x3bc3c6c0	0.0059746206
240	0xbdf93ece	-0.12170182
241	0xbd9721d8	-0.07379502
242	0xbd2e8a7c	-0.042612538
243	0x3d409781	0.047019485
244	0xbdc63195	-0.09677426
245	0x3df1632e	0.11786495
246	0xbce41328	-0.027841166
247	0xbcb7df18	-0.022445247
248	0x3da81048	0.082062304
249	0x3d80aae6	0.06282596
250	0x3dd91e6a	0.10601504
251	0x3d671bc8	0.05642298
252	0xbd5c5eed	-0.053801466
253	0xbda9d954	-0.08293405
254	0xbcce4c81	-0.025182964
255	0x3db35905	0.087572135

fc2.bias f4 [64]
0	0x3e73c01a	0.2380375
1	0x3f73b2ca	0.95194685
2	0x3e854880	0.26031876
3	0xbdb539f0	-0.08848941
4	0xbd766f7b	-0.06016491
5	0xbdf25c4e	-0.11834012
6	0xbd44f8b6	-0.04808875
7	0xbe01e463	-0.12684779
8	0x3e0570fd	0.13031383
9	0xbf439665	-0.7640136
10	0x3e1e7044	0.15472513
11	0x3e96f59d	0.29484263
12	0xbdbf7d88	-0.09350115
13	0x3cf4cd60	0.029883087
14	0x3d20da09	0.039270435
15	0x3ee59a2c	0.44844186
16	0x3ede2c60	0.4339323
17	0x3e9ba6ca	0.30400687
18	0x3e8c2746	0.27373713
19	0x3eae3c4e	0.34030384
20	0x3ee5d62d	0.44889966
21	0xbce6d250	-0.028176457
22	0x3ec457a9	0.3834813
23	0x3ea89e0d	0.32933083
24	0x3eb524a8	0.3537953
25	0x3e32a6de	0.17446467
26	0xbcc6dcab	-0.024275145
27	0xbcd3e809	-0.025867479
28	0x3d56fcb8	0.052487105
29	0x3dda1813	0.10649123
30	0xbe1227ce	-0.14272997
31	0x3e4e2f8a	0.20135322
32	0x3e27d13b	0.16388409
33	0xbda7f603	-0.0820122
34	0x3d22b0a9	0.039719258
35	0x3ddb22b0	0.106999755
36	0x3e7a6030	0.24450755
37	0x3ca6f2e2	0.020379487
38	0x3e9320ad	0.28735867
39	0x3e46c251	0.19410063
40	0xbd187393	-0.037219595
41	0x3ed3ecfa	0.41391736
42	0x3db9531d	0.09049056
43	0x3ecf8b0b	0.4053577
44	0x3ee4cf83	0.4468957
45	0x3e99420b	0.299332
46	0x3f1196ca	0.5687071
47	0xbd06ab28	-0.03287807
48	0xbcd31e98	-0.025771424
49	0x3df79eda	0.120908454
50	0x3e55655d	0.20839448
51	0xbdb77f72	-0.08959855
52	0x3f0e926b	0.55692166
53	0x3f1ee05a	0.62061083
54	0x3d215b02	0.039393432
55	0xbd9489a2	-0.07252814
56	0x3e4449cb	0.19168775
57	0xbd31a6e6	-0.043372057
58	0x3ec408e6	0.3828804
59	0x3dd3dcee	0.10344873
60	0x3cd5a5f7	0.026080115
61	0xbc4db73a	-0.012555892
62	0x3f082ea6	0.5319618
63	0x3d968b89	0.07350833

fc3.weight f4 [4, 64]
0	0xbe2d21a2	-0.16907361
1	0x3efb332a	0.49062473
2	0xbbcc3ddf	-0.0062329615
3	0xbd4d01bc	-0.050050482
4	0xbcb8da68	-0.022565082
5	0xbde76d2e	-0.11300121
6	0xbcbf22f8	-0.023332104
7	0xbd09059f	-0.033452626
8	0xbe648f98	-0.22320402
9	0xbf1b1f58	-0.605947
10	0x3f29777e	0.66197956
11	0x3e20f5be	0.15718743
12	0x3db221de	0.08697866
13	0x3dc16fea	0.09445174
14	0xbb8b2afe	-0.0042470684
15	0x3f212ff9	0.62963825
16	0xbc52673e	-0.012841998
17	0x3edc3d22	0.4301539
18	0x3e5a06b6	0.21291623
19	0x3f7d010a	0.9882971
20	0x3f57dd7a	0.8432232
21	0xbc9f2f05	-0.0194316
22	0x3ee139e0	0.43989468
23	0x3e18ee67	0.14934693
24	0x3f13ba81	0.5770646
25	0xbe6030a5	-0.21893556
26	0x3de00070	0.109375834
27	0x3d567caa	0.052364983
28	0x3d78ecd8	0.060772747
29	0xbeae2219	-0.3401039
30	0x3d9a211e	0.07525848
31	0x3ea985a5	0.33109775
32	0x3f0461f8	0.5171199
33	0xbdd20d9e	-0.102565035
34	0x3ddd2ff5	0.10800163
35	0xbd263a37	-0.04058286
36	0x3d06f071	0.032944147
37	0xbe4e6f6e	-0.20159695
38	0x3d2abf15	0.041686136
39	0xbe3358c8	-0.17514336
40	0xbc8d0e61	-0.01721877
41	0x3f361792	0.71129715
42	0x3ede7765	0.43450466
43	0x3edb9b85	0.4289209
44	0xbfa9d450	-1.3267918
45	0x3e46bd5a	0.1940817
46	0x3f29ab88	0.6627736
47	0x3cd5ce68	0.026099399
48	0xbdcb0091	-0.099122174
49	0x3d94bb10	0.07262242
50	0xbe642b86	-0.22282228
51	0xbdffd8f4	-0.124925524
52	0x3eb3fa01	0.35151675
53	0x3fa2d548	1.2721338
54	0xbea7cdef	-0.32774302
55	0x3d8af982	0.06785871
56	0x3e8d6d74	0.2762257
57	0xbc6d6ba7	-0.014490998
58	0xbe017189	-0.12640966
59	0xbcd3b471	-0.025842877
60	0xbcfa1400	-0.030527115
61	0xbdd22494	-0.10260883
62	0x3f4c51b1	0.7981215
63	0x3db4dbe1	0.08831001
64	0xbe9b2018	-0.30297923
65	0x3f6adcc2	0.917431
66	0xbec1f07b	-0.37878785
67	0xbd542244	-0.05179049
68	0x3cc83cc8	0.024443045
69	0xbee0f71c	-0.4393853
70	0x3dd1f080	0.1025095
71	0xbc827c76	-0.015928488
72	0xbf0b3484	-0.5437701
73	0xbe44393d	-0.1916246
74	0x3e53fca5	0.20701845
75	0x3f34693e	0.70473087
76	0xbdc8b80c	-0.09800729
77	0xbd5b10e4	-0.053482905
78	0x3e10c775	0.14138587
79	0x3e2c0a7e	0.16800877
80	0xbeb0e7b7	-0.34551784
81	0x3f287ca8	0.6581521
82	0x3eaa9ede	0.3332433
83	0x3ed7ab15	0.42122713
84	0x3fc0b573	1.5055374
85	0xbd64d3a0	-0.055865884
86	0x3f1194d4	0.5686772
87	0x3e5f30c6	0.2179595
88	0x3eb5a3af	0.35476443
89	0xbf2f927f	-0.6858291
90	0xbca9fabb	-0.02074944
91	0xbb5969a4	-0.003317454
92	0x3d936bbe	0.071982846
93	0x3e89fb39	0.2694948
94	0x3d8cc6b7	0.06873839
95	0x3e846c61	0.25863937
96	0x3dfc9c13	0.12334456
97	0xbde42460	-0.111397505
98	0x3defc8bd	0.1170821
99	0xbf0b2ffe	-0.54370105
100	0x3e8c0b53	0.2735239
101	0xbf105fe7	-0.56396335
102	0xbf49e928	-0.78871393
103	0xbf2df9f6	-0.67959535
104	0xbd614d48	-0.05500534
105	0x3e95caed	0.29256383
106	0x3e94cdbd	0.29063216
107	0x3f05ef6a	0.5231844
108	0xbe88d4b7	-0.2672479
109	0x3e8fff14	0.28124297
110	0x3f5d4d2e	0.8644589
111	0x3a52e700	0.0008045286
112	0xbd9fa702	-0.07795526
113	0x3b8301e0	0.0039980263
114	0xbf037cf3	-0.5136253
115	0x3d628a38	0.055307597
116	0x3f788455	0.9707692
117	0x3eec5fac	0.46166742
118	0xbf130abc	-0.57438254
119	0xbedec2a3	-0.4350787
120	0x3e9319f1	0.2873073
121	0xbde20ab5	-0.110371985
122	0xbf0dfd2a	-0.5546442
123	0x3e4770c0	0.19476604
124	0x3dc559f8	0.09636301
125	0x3d993b3d	0.07482002
126	0x3fc87e1c	1.5663486
127	0x3dc9d5f4	0.098552614
128	0x3ea63c25	0.32467762
129	0x3ed53c63	0.41647634
130	0x3e737f28	0.23778975
131	0x3dad24bf	0.084542744
132	0x3d94f42b	0.07273134
133	0xbe84518e	-0.2584347
134	0xbd4cebc9	-0.05002955
135	0xbc44432e	-0.0119789075
136	0xbe07d91f	-0.13266419
137	0xbf7241d3	-0.9463169
138	0x3ed99bc3	0.4250165
139	0x3eb24a37	0.34822246
140	0x3ddef1f2	0.10885991
141	0x3a7b3500	0.0009582788
142	0xbe8d2e8d	-0.27574578
143	0x3f10fa93	0.56632346
144	0x3e9f9f41	0.3117619
145	0x3f001234	0.50027776
146	0x3e18efc3	0.14935212
147	0x3f7f0b2b	0.99626416
148	0xbf1e1533	-0.617511
149	0x3daeaf49	0.08529527
150	0x3f241196	0.64089334
151	0x3db8974b	0.09013232
152	0x3f182921	0.5943776
153	0x3d7298a4	0.0592276
154	0xbd3610d1	-0.04444963
155	0xbdc70e7f	-0.09719562
156	0x3c86bf90	0.016448766
157	0xbeb66f54	-0.35631812
158	0xbb8ac92a	-0.0042354064
159	0x3f0aa98c	0.5416496
160	0x3ec8e745	0.39238945
161	0x3d574fc5	0.05256631
162	0x3db13972	0.08653535
163	0x3deb0395	0.114752926
164	0x3dfbb574	0.12290469
165	0xbe3f22e8	-0.1866566
166	0x3a8ec077	0.0010891099
167	0xbe1a6446	-0.15077314
168	0x3d633e0f	0.055479106
169	0x3f1dd66a	0.61655295
170	0x3f5c665c	0.8609369
171	0x3f04139d	0.5159243
172	0xbfb384bf	-1.4024886
173	0x3e17c81f	0.14822434
174	0x3f87b103	1.0600895
175	0xbdb5bc6a	-0.08873828
176	0xbdb6c5d4	-0.089244515
177	0xbccac4d0	-0.02475205
178	0x3cca16b7	0.024669034
179	0x3cce9130	0.025215715
180	0x3e7741a1	0.24146129
181	0x3f86f0e0	1.0542259
182	0xbeaa78ae	-0.33295196
183	0x3dfdf876	0.12400906
184	0x3ed9e5da	0.42558175
185	0x3cf786a6	0.030215573
186	0x3e3227e1	0.17398025
187	0x3d584270	0.052797735
188	0x3c9fd088	0.019508615
189	0xbd81d34c	-0.0633913
190	0xbf08c68c	-0.5342796
191	0xbce632cd	-0.028100396
192	0x3e15496e	0.14578792
193	0x3e10c88d	0.14139004
194	0xbe01455d	-0.12624116
195	0x3dc80014	0.0976564
196	0x3ca37bde	0.019956525
197	0xbe8a715b	-0.27039608
198	0x3b815a60	0.003947541
199	0x3d07b90c	0.03313546
200	0xbc87297f	-0.016499279
201	0xbeac9af1	-0.3371196
202	0x3f1c3619	0.61020046
203	0x3e8148f3	0.25250968
204	0xbdc94378	-0.09827322
205	0xbcc0abc8	-0.023519412
206	0x3d8f53c4	0.06998399
207	0x3f515607	0.8177189
208	0x3e5c993e	0.21542832
209	0x3f0eac15	0.55731326
210	0x3e37c3da	0.17945805
211	0x3f6ed9b4	0.9330094
212	0x3f635b99	0.8881164
213	0xbcdc9fef	-0.026931731
214	0x3f2c8689	0.67392784
215	0xbbac56d5	-0.0052593746
216	0x3ee998eb	0.4562448
217	0xbe851e53	-0.25999698
218	0xbd76afee	-0.060226373
219	0xbd68f900	-0.05687809
220	0x3dbeb376	0.09311573
221	0xbea892d6	-0.32924527
222	0x3de94606	0.11390309
223	0x3e629c50	0.22129941
224	0x3ed5b640	0.41740608
225	0x3dd2845f	0.10279154
226	0xbd0b2666	-0.033972166
227	0xbde53187	-0.11191087
228	0x3e05c867	0.13064729
229	0xbe481b14	-0.1954158
230	0xbe78fd3a	-0.24315348
231	0xbe89c7a5	-0.2691013
232	0x3d92afb2	0.071624175
233	0x3e588502	0.21144488
234	0x3e93fd23	0.28904065
235	0x3f1bc8b8	0.6085315
236	0xbf94e5d0	-1.1632633
237	0x3ea40c81	0.3204079
238	0x3f51c3af	0.81939214
239	0xbac01500	-0.0014654696
240	0x3d2a86d0	0.041632473
241	0xbd8f10aa	-0.069856
242	0x3bd3b4e0	0.006460771
243	0xbdd498f4	-0.10380736
244	0x3edfbd9e	0.43699354
245	0x3fa2855b	1.2696947
246	0xbe1ba189	-0.1519834
247	0xbd244876	-0.040108167
248	0x3deca26f	0.11554419
249	0x3c52a9fa	0.012857908
250	0xb9860bd8	-0.00025567296
251	0x3e2f74f9	0.17134465
252	0xbdf30846	-0.118668124
253	0xbe1773bf	-0.14790247
254	0x3f6febca	0.9371916
255	0x3dbf5039	0.09341473

fc3.bias f4 [4]
0	0x3ee65a09	0.44990566
1	0x3e2238b4	0.15841943
2	0x3eae62b2	0.34059674
3	0x3ee5196a	0.44745952
