dqn_lunar_lander/checkpoint.pth (torch_old, 21023 bytes, 6 tensors)

fc1.weight f4 [64, 8]
0	0x3cec41ca	0.028839964
1	0xbef83b63	-0.48482808
2	0xbf23b503	-0.63948077
3	0x3fad65f5	1.354674
4	0x3ee21fd8	0.4416492
5	0x3e07e54e	0.13271067
6	0x3dd48582	0.10377027
7	0x3eef4bcb	0.46737513
8	0x3ea3ae7e	0.31969064
9	0x3ed078fb	0.407173
10	0xbe7066e2	-0.23476747
11	0xba7685ae	-0.0009404075
12	0xbe08ec8f	-0.1337149
13	0xbf4a10f6	-0.7893213
14	0xbf2186f3	-0.6309654
15	0x3e22d8e7	0.15903054
16	0x3f3e2087	0.7426838
17	0x3f0d42c5	0.5518001
18	0x3dd00885	0.10157875
19	0xbf441ffb	-0.766113
20	0x3ec825ec	0.39091432
21	0x3deecf9d	0.11660693
22	0x3deaf31e	0.11472152
23	0x3e8e96d1	0.2784944
24	0x3ddbdf19	0.10735912
25	0xbe972778	-0.295223
26	0x3f54dca4	0.8314917
27	0xbede1eff	-0.43383023
28	0xbf178a71	-0.5919562
29	0xbd7a3ddb	-0.061094146
30	0xbda2ea1d	-0.0795481
31	0x3e909aed	0.282432
32	0xbe034926	-0.12820873
33	0xbf1b86b9	-0.60752445
34	0xbf19489d	-0.59876424
35	0x3f044315	0.5166486
36	0x3e3aa6d8	0.18227708
37	0x3e83550a	0.25650817
38	0x3ec55286	0.38539523
39	0x3e909589	0.28239086
40	0xbe102db7	-0.14079939
41	0xbd8d6f73	-0.06906023
42	0x3ebb7c0a	0.36618072
43	0xbeac4e6e	-0.33653587
44	0xbf134571	-0.57527834
45	0xbe9494b7	-0.2901971
46	0x3ec2a74b	0.3801826
47	0x3e9b9f84	0.30395138
48	0x3de29981	0.11064435
49	0xc03bcb2c	-2.9342756
50	0x3ef5db28	0.48018765
51	0x3e0123cd	0.12611313
52	0xbea0d1ba	-0.3141001
53	0x3e1ccc50	0.15312314
54	0x3efd35a7	0.49454996
55	0xbea81c4b	-0.32834086
56	0x3e97262f	0.2952132
57	0xbf6101f1	-0.8789359
58	0xbe97ef6f	-0.2967486
59	0xbf090a06	-0.5353092
60	0x3f332514	0.6997845
61	0x3e151c00	0.14561462
62	0xbeb78899	-0.35846403
63	0xbdbbfb91	-0.09178842
64	0x3e33a99a	0.17545167
65	0xbce19649	-0.027537482
66	0x3ecc4ecd	0.3990387
67	0xbe5185a2	-0.20461133
68	0x3db0348e	0.08603774
69	0x3f82fdd4	1.0233712
70	0x3c4ee0ed	0.012626869
71	0xbf8ba52b	-1.090978
72	0xbd911ca0	-0.07085538
73	0x3f80b562	1.0055354
74	0x3d0b451e	0.034001462
75	0x3ebd22f8	0.36940742
76	0x3ec3c068	0.38232732
77	0xbec75732	-0.38933712
78	0x3dc3878d	0.09547339
79	0xbf8ae7be	-1.0851972
80	0xbe69d599	-0.22835387
81	0x3f9f7611	1.2457906
82	0x3f52dbe9	0.82366806
83	0xbfede8d6	-1.8586681
84	0xbd87179a	-0.065962985
85	0xbe61d985	-0.22055633
86	0x3c2b501c	0.010456111
87	0xbf1e7846	-0.6190227
88	0x3f929a39	1.1453315
89	0xbf0dcb11	-0.5538798
90	0x3f56dcb2	0.83930504
91	0xbe90c7b2	-0.28277355
92	0x3ecfa847	0.40558073
93	0x3d673623	0.056448113
94	0xbda44175	-0.080202974
95	0x3bd8e4e0	0.006619081
96	0x3e34d470	0.17659163
97	0x3e1648fe	0.14676282
98	0x3eb8c167	0.36085054
99	0x3eb0ec9e	0.34555525
100	0x3eca10c3	0.39465913
101	0x3f8d637e	1.1045988
102	0x3e9bc1c2	0.30421263
103	0xbf623efe	-0.8837737
104	0xbbcfea30	-0.006345056
105	0xbf91c4f2	-1.1388228
106	0xbe466328	-0.19373763
107	0xbef66d33	-0.48130187
108	0x3f1b724a	0.60721266
109	0x3e0af64e	0.1357052
110	0xbdf43706	-0.119245574
111	0x3e10c2b4	0.14136773
112	0xbf22dc38	-0.6361728
113	0x3f260571	0.6485205
114	0x3ec82eb6	0.39098138
115	0xbf099911	-0.53749186
116	0xbee2d9ee	-0.44306892
117	0x3d239f75	0.039946992
118	0x3ed99aab	0.42500815
119	0xbedab90d	-0.42719308
120	0x3f53c692	0.8272487
121	0x3d843373	0.06455126
122	0xbdb48d12	-0.088159695
123	0xbd56ab79	-0.052409623
124	0xbef1ae12	-0.47203118
125	0xbf6805f6	-0.90634096
126	0x3d6507b8	0.055915564
127	0x3f0d7c63	0.55267924
128	0xbec4207c	-0.38306034
129	0xbcb6ef19	-0.022330808
130	0x3e88e771	0.26739076
131	0xbe6c9443	-0.23103432
132	0xbebd4414	-0.36966002
133	0xbe1996d2	-0.1499894
134	0x3ed502a9	0.41603592
135	0x3ceefab4	0.029172279
136	0x3f08034c	0.5313003
137	0x3eba106b	0.3634065
138	0x3ea814d9	0.32828405
139	0x3f164698	0.5870147
140	0x3c2eaec2	0.010661783
141	0x3f0226e0	0.5084057
142	0x3ef4251d	0.47684565
143	0xbeef2016	-0.46704167
144	0xbf6ff57e	-0.93733966
145	0xbeac19c1	-0.336134
146	0x3e9ec732	0.3101135
147	0xbe5e2798	-0.21694791
148	0xbfafe8e8	-1.3742952
149	0xbded3b7f	-0.115836136
150	0x3e2e79af	0.17038606
151	0xbf66d3b9	-0.90166813
152	0x3e18a45f	0.14906453
153	0xbe988bf6	-0.29794282
154	0x3e4d7686	0.20064744
155	0xbfdf3234	-1.7437196
156	0x3f969a2d	1.1765801
157	0xbdb9489b	-0.090470515
158	0x3e7c01cb	0.24610059
159	0xbe8738aa	-0.2641042
160	0xbdc57166	-0.0964077
161	0xbd4fa3ef	-0.05069345
162	0xbc934a3f	-0.01797974
163	0xbf824dc5	-1.0179983
164	0xbe057f41	-0.13036825
165	0xbd22f581	-0.039784912
166	0x3d11542d	0.035480667
167	0x3e90602d	0.28198376
168	0xbf2f8c29	-0.6857324
169	0xbeac94e1	-0.33707336
170	0x3ea64b47	0.32479307
171	0xbf161242	-0.5862161
172	0x3e324710	0.1740992
173	0x3e9d05e4	0.30668557
174	0x3ca79894	0.020458497
175	0x3f266d25	0.6501029
176	0xbe7c3260	-0.24628592
177	0xbeaa6ccc	-0.3328613
178	0x3e92eca1	0.2869616
179	0xbf1ef033	-0.62085265
180	0xbe16365d	-0.14669175
181	0xbe18560e	-0.14876577
182	0x3ee6bd86	0.4506647
183	0x3ddac0c9	0.10681302
184	0x3eacb917	0.33734962
185	0xbc27ba91	-0.010237352
186	0x3ef241c0	0.47315788
187	0x3e316828	0.17324889
188	0xbef078cb	-0.46967158
189	0xbd832b76	-0.06404774
190	0x3eeb3e28	0.4594586
191	0x3eb0f1fc	0.3455962
192	0xbe4a0394	-0.19727927
193	0xbf44385e	-0.7664851
194	0xbf15c2de	-0.5850047
195	0xbf5c49eb	-0.8605029
196	0x3ebb4749	0.36577824
197	0x3df1dbca	0.118094996
198	0xbd6473ef	-0.055774625
199	0x3d308c2c	0.04310243
200	0xba1e8fe4	-0.0006048663
201	0xbee96195	-0.45582262
202	0xbf29c8fa	-0.6632229
203	0x3f5998c0	0.84998703
204	0x3ec6d1f7	0.38832065
205	0x3e658dab	0.22417323
206	0x3e045294	0.12922126
207	0x3edfc080	0.43701553
208	0x3ecd39c8	0.40083146
209	0xbe9940d6	-0.29932278
210	0x3eb440c0	0.3520565
211	0xbf42fb49	-0.7616468
212	0x3d0ea8e4	0.034829035
213	0xbd82e686	-0.06391625
214	0xbeb0b9cd	-0.34516755
215	0x3c63c2f8	0.013901465
216	0x3eab5f21	0.33471015
217	0xbf22f1a0	-0.6364994
218	0x3e4e16b9	0.20125856
219	0x3d1ee37c	0.038791165
220	0x3efd1654	0.49431098
221	0x3e99bcfa	0.3002699
222	0x3e61bc15	0.22044404
223	0x3d3d6faa	0.04624907
224	0xbf966a51	-1.1751195
225	0x3f48d01e	0.7844256
226	0xbf97bfa6	-1.1855361
227	0x3dd7c081	0.10534764
228	0xbc7a76df	-0.01528713
229	0xbd944bfa	-0.07241054
230	0xbe41e194	-0.18933707
231	0x3e4fc544	0.20290095
232	0xbde41f35	-0.11138765
233	0xbcff2ef6	-0.031150322
234	0x3f8a936a	1.0826237
235	0xc0002d0b	-2.0027492
236	0x3e84b4b8	0.25919127
237	0xbf0a8fb1	-0.54125506
238	0x3e56ac67	0.20964204
239	0x3d92c153	0.0716578
240	0x3eaa8518	0.33304667
241	0x3f1c68b2	0.6109725
242	0x3ce1bdac	0.027556263
243	0xbeb1e24f	-0.34742972
244	0x3d9fce56	0.07803027
245	0xbf877488	-1.0582438
246	0x3f1031c9	0.56325966
247	0xbf146e9d	-0.5798128
248	0xbf671650	-0.9026842
249	0x3c02502b	0.007953684
250	0xbe64c299	-0.22339858
251	0x3ea7f5d1	0.3280473
252	0x3cf1947a	0.029489744
253	0xbf000b3f	-0.5001716
254	0x3e3bd075	0.18341239
255	0x3edd3805	0.43206802

fc1.bias f4 [64]
0	0xbec3ba5f	-0.38228127
1	0xbf26304a	-0.64917433
2	0x3ebb2426	0.36551017
3	0xbe608f5c	-0.21929687
4	0xbe5e086c	-0.216829
5	0xbe2112b6	-0.15729794
6	0x3f15eeec	0.5856769
7	0xbe390d5f	-0.18071507
8	0xbdfba7e5	-0.12287883
9	0x3f1faf85	0.62377197
10	0x3e890178	0.26758933
11	0x3d632044	0.055450693
12	0xbedfae9a	-0.43687898
13	0xbea2b4c2	-0.31778532
14	0x3ebf7948	0.37397218
15	0x3e3b37c1	0.18282987
16	0xbe008f40	-0.12554646
17	0x3d0e6ed4	0.034773663
18	0x3e953e20	0.2914896
19	0x3e3eab04	0.18619925
20	0xbec282f2	-0.37990528
21	0xbda6a25f	-0.081364386
22	0xbe8cbd7f	-0.27488324
23	0xbe906dd2	-0.28208786
24	0xbe94ee7d	-0.29088202
25	0xbeaee3a3	-0.34158048
26	0xbe9b2060	-0.30298138
27	0xbd28de05	-0.04122736
28	0xbd7d2072	-0.06179852
29	0x3bf61a1c	0.0075104367
30	0xbd789f19	-0.060698602
31	0xbdeca315	-0.11554543
32	0xbc63720a	-0.0138821695
33	0x3ebb4254	0.36574042
34	0xbef713c6	-0.48257273
35	0x3e8494cc	0.25894773
36	0x3eede4e1	0.46463683
37	0xbe2ccb18	-0.16874349
38	0xbeabbe97	-0.33543846
39	0xbdc43176	-0.095797464
40	0x3ec2ea49	0.3806937
41	0xbea4ae08	-0.32164025
42	0xbc6016bb	-0.013677294
43	0x3eaf5f79	0.34252527
44	0xbe9d1091	-0.30676702
45	0xbe123281	-0.14277078
46	0x3e80a38e	0.25124782
47	0x3f0a78f2	0.540908
48	0x3e502f3c	0.20330518
49	0xbd728a7e	-0.059214108
50	0x3e94b949	0.2904761
51	0x3ed2d0f3	0.4117504
52	0xbe8ceeb1	-0.27525857
53	0xbe83ccf5	-0.25742307
54	0x3b9c6b05	0.0047735
55	0x3dd8f3c1	0.10593367
56	0x3eeaea6f	0.45881984
57	0x3e9076ce	0.2821564
58	0x3edae369	0.42751625
59	0xbeb76e6d	-0.35826436
60	0x3deb20a0	0.11480832
61	0xbdb3dfcd	-0.08782921
62	0x3de93dae	0.113887176
63	0x3eb25a8a	0.348347

fc2.weight f4 [64, 64]
0	0x3e20bcac	0.15696973
1	0x3ebca825	0.36847034
2	0xbc855657	-0.016276522
3	0x3ec3fa5a	0.3827694
4	0x3e2536b7	0.16134153
5	0x3e2b11f9	0.16706075
6	0xbe972a99	-0.29524687
7	0x3edb9728	0.4288876
8	0x3efba3e7	0.49148485
9	0xbca9792a	-0.020687658
10	0x3eb6c56d	0.356975
11	0x3f1a67a5	0.603144
12	0x3efc901e	0.49328703
13	0x3f06b5f6	0.526214
14	0x3e0e77de	0.13912913
15	0x3ede2858	0.43390155
16	0x3e600a9d	0.21879049
17	0x3f1cd808	0.6126714
18	0xbe62a3ea	-0.22132841
19	0xbe8fbaf0	-0.2807231
20	0x3e93d711	0.2887502
21	0x3e1fe792	0.15615681
22	0x3ee931a3	0.45545682
23	0x3ec9230b	0.39284548
24	0x3ea14284	0.3149606
25	0x3dbc2f32	0.09188689
26	0x3f1af342	0.6052743
27	0x3e81a739	0.25322893
28	0x3e727b74	0.23679906
29	0xbea77d0b	-0.32712588
30	0xbde65068	-0.11245805
31	0xbda84ef6	-0.082181856
32	0xbef34743	-0.47515306
33	0x3ead4577	0.3384206
34	0x3f1aa2fe	0.60404956
35	0x3e8c33c1	0.27383235
36	0x3f51c84e	0.81946266
37	0x3e91d1f5	0.28480497
38	0x3d359d30	0.04433936
39	0x3f1bfdc6	0.609341
40	0x3e577a26	0.2104269
41	0x3e9c0d42	0.30478865
42	0x3ed52322	0.41628367
43	0xbe55f058	-0.20892465
44	0xbf950443	-1.1641926
45	0x3f231e9a	0.6371857
46	0x3f063ec0	0.524395
47	0xbebba61d	-0.36650172
48	0x3f4c8658	0.7989249
49	0xbf0dd570	-0.55403805
50	0xbd8d5375	-0.06900684
51	0xbe841fe5	-0.25805584
52	0x3efd6340	0.49489784
53	0x3e9c9308	0.30580926
54	0x3e55d25b	0.20881025
55	0xbf88eb74	-1.0696855
56	0x3dd6ce86	0.1048861
57	0x3e42f5e1	0.19039108
58	0x3e22a4c1	0.15883161
59	0x3ee1cc0a	0.44100982
60	0x3e3bf745	0.18356045
61	0x3e5340c8	0.20630181
62	0x3cb2ce25	0.021826813
63	0xbe32a13b	-0.17444317
64	0x3df3ca95	0.11903874
65	0x3f0674cf	0.52521986
66	0xbd255424	-0.040363446
67	0x3e9922e2	0.29909426
68	0x3e12f720	0.14352083
69	0x3ee3a058	0.4445827
70	0xbe605c17	-0.2191013
71	0x3eff208c	0.4982952
72	0x3e31f74d	0.17379494
73	0xbef6e63d	-0.48222533
74	0x3f08432f	0.53227514
75	0x3ee9ff3a	0.45702535
76	0x3e93ef98	0.28893733
77	0x3eaa84ce	0.33304447
78	0x3d2e04c9	0.042485032
79	0x3e8515a4	0.25993073
80	0x3eb7f3c9	0.3592818
81	0x3ee518d7	0.44745514
82	0xbdec023c	-0.11523864
83	0xbd443dc4	-0.047910467
84	0x3ef4b5bf	0.4779491
85	0x3b853e18	0.00406624
86	0x3ee9427c	0.45558536
87	0x3e800d29	0.2501004
88	0x3ecc892d	0.39948407
89	0x3e8bde98	0.27318263
90	0x3f42badf	0.7606639
91	0x3e58e1a6	0.21179828
92	0x3f489fd5	0.78368884
93	0x3ec50132	0.38477474
94	0xbe76d306	-0.24103937
95	0x3e1ad8b1	0.15121724
96	0xbe4a971c	-0.19784206
97	0x3dcef1a6	0.101046845
98	0x3f235c67	0.6381287
99	0x3e6e9646	0.23299512
100	0x3eb4232e	0.3518309
101	0x3ea307ae	0.31841797
102	0x3daf4fca	0.085601404
103	0x3eed7cb0	0.46384192
104	0x3e55a160	0.20862341
105	0x3e15dd58	0.14635217
106	0x3edb0c3a	0.42782766
107	0xbf67ab2e	-0.90495574
108	0xbf7c8e72	-0.98654854
109	0x3f0b51d2	0.5442172
110	0x3d840141	0.06445552
111	0xbee0ff9b	-0.43945011
112	0x3ecf12e2	0.40444094
113	0xbd86ff67	-0.06591683
114	0xbdb10a14	-0.086445004
115	0xbec11642	-0.37712294
116	0x3f3f838f	0.7481012
117	0x3e9c149b	0.3048447
118	0x3e2f9134	0.17145234
119	0xbf2b3c19	-0.66888577
120	0x3db89e48	0.09014565
121	0x3df1aed7	0.11800926
122	0x3e2264c2	0.15858749
123	0x3f13b850	0.57703114
124	0x3dec30ca	0.11532743
125	0x3ee2286c	0.44171464
126	0x3e3025c0	0.172019
127	0xbe06afc0	-0.13152981
128	0x3e0e17c9	0.13876261
129	0x3efe40d6	0.4965884
130	0xbdb9842e	-0.090584144
131	0x3ec79e52	0.38987976
132	0x3e5a7429	0.21333374
133	0x3ecd17c4	0.40057194
134	0xbe357de4	-0.17723805
135	0x3eaa4e05	0.3326265
136	0x3e0caa0d	0.13736744
137	0xbf185d57	-0.59517425
138	0x3ea31109	0.31848934
139	0x3f01b923	0.5067312
140	0x3e42f6f9	0.19039525
141	0x3f031894	0.5120938
142	0x3d5e33dd	0.05424868
143	0x3eea4700	0.45757294
144	0x3edc1df0	0.4299159
145	0x3e9e05d3	0.3086382
146	0xbea3cd72	-0.3199268
147	0xbe75b141	-0.23993398
148	0x3f17833e	0.59184635
149	0x3df9a1b7	0.12189048
150	0x3ee9c82b	0.4566053
151	0x3e719ff2	0.2359617
152	0x3f0404a6	0.5156959
153	0x3dca919f	0.09891056
154	0x3f3c4f9a	0.7355896
155	0x3e8c6405	0.2742006
156	0x3f591184	0.8479235
157	0x3d4da286	0.050203823
158	0xbdb8aa81	-0.09016896
159	0x3e754779	0.23953046
160	0xbe32474f	-0.17410015
161	0xbeacd58d	-0.33756676
162	0x3f140d05	0.57832366
163	0x3c870400	0.0164814
164	0x3eb718a9	0.35761002
165	0x3e72a752	0.2369664
166	0x3dcaf7cc	0.09910545
167	0x3eea72ba	0.45790654
168	0x3dcaf760	0.09910464
169	0x3eb8195e	0.35956854
170	0x3eeb7528	0.4598782
171	0xbf921532	-1.1412718
172	0xbf973400	-1.1812744
173	0x3ebe8d80	0.3721733
174	0xbdd3d7e5	-0.10343913
175	0xbe628667	-0.22121583
176	0x3e844518	0.25833964
177	0x3eac72ce	0.3368134
178	0xbc892784	-0.016742475
179	0xbe5acd6d	-0.21367426
180	0x3f246b56	0.6422628
181	0x3e97b077	0.2962682
182	0x3dde4bc3	0.10854294
183	0xbf69cfc5	-0.91332656
184	0xbb4c2b4d	-0.003115374
185	0x3e67de8d	0.2264349
186	0xbd8e6d59	-0.0695445
187	0x3f28f1bf	0.65993875
188	0x3e346250	0.17615628
189	0x3e6d2257	0.23157631
190	0xbd2d2565	-0.04227199
191	0xbc93cfae	-0.018043365
192	0x3e0cc483	0.13746838
193	0x3ef24ba5	0.47323337
194	0x3e209199	0.15680541
195	0x3dd353d5	0.10318724
196	0x3ed2583e	0.41082948
197	0x3ea9da07	0.33174154
198	0xbcaf9c8e	-0.021436956
199	0x3dbc88b3	0.09205761
200	0x3f0967aa	0.53673804
201	0xbdbaad80	-0.09115124
202	0x3f164bb8	0.5870929
203	0x3f21838f	0.6309137
204	0x3e4c080e	0.19924948
205	0x3f19457f	0.5987167
206	0x3e6d32b7	0.23163877
207	0x3eda3bf1	0.42623857
208	0x3e960253	0.29298648
209	0x3f20f03e	0.6286658
210	0xbe91542a	-0.28384525
211	0xbe58645d	-0.21132036
212	0x3f27e7ab	0.6558787
213	0x3e10de59	0.14147319
214	0x3e681901	0.22665788
215	0x3e92e2e4	0.2868873
216	0x3ed86ac0	0.42268944
217	0x3e1dcc07	0.15409862
218	0x3f30f403	0.6912233
219	0x3e71b29b	0.23603289
220	0x3dd6043d	0.10450027
221	0xbe8587c0	-0.26080132
222	0x3e1eec20	0.15519762
223	0x3e8b0317	0.27150795
224	0xbe899a7c	-0.26875675
225	0x3e2d2c00	0.16911316
226	0x3f2eb213	0.6824047
227	0x3d957407	0.07297521
228	0x3e1bccdb	0.15214865
229	0x3f1237b3	0.5711624
230	0x3dfe9006	0.12429814
231	0x3e9f0173	0.31055793
232	0x3e582da9	0.21111168
233	0x3e551bd0	0.20811391
234	0xbb8494a1	-0.0040460383
235	0xbec054a8	-0.37564588
236	0xbf7f6aa5	-0.997721
237	0x3dc7dc58	0.09758824
238	0x3eb2529d	0.34828654
239	0x3da41536	0.08011858
240	0xbbf8c280	-0.0075915456
241	0xbe6b90a9	-0.23004402
242	0xbea9cf6d	-0.33166066
243	0xbe0499e9	-0.12949337
244	0x3f398935	0.72474986
245	0x3c8b7e50	0.017028004
246	0x3f02019a	0.50783694
247	0xbf72948e	-0.94757926
248	0x3e01cd2b	0.12675922
249	0x3e994e50	0.2994256
250	0x3e3bf6ca	0.18355861
251	0x3eeb69f3	0.4597927
252	0x3dbaa8c4	0.09114221
253	0x3ed3bb06	0.41353625
254	0xbdda4b15	-0.10658852
255	0xbd4df801	-0.050285343

fc2.bias f4 [64]
0	0x3bdbc1ea	0.006706466
1	0xbed943da	-0.4243458
2	0xbed0ce9e	-0.40782636
3	0x3e6c4073	0.2307146
4	0x3dedbbc7	0.11608081
5	0x3d1c0c3d	0.03809761
6	0x3e43a8de	0.19107386
7	0xbe0d742a	-0.13813844
8	0x3e9c1618	0.30485606
9	0xbe013b6b	-0.12620322
10	0x3ed0baa0	0.40767384
11	0xbe04f0d9	-0.12982501
12	0x3da6b385	0.081397094
13	0x3cc4315d	0.02394932
14	0x3e82e798	0.25567317
15	0x3f43107c	0.7619703
16	0x3f19c747	0.600697
17	0xbd97d779	-0.07414145
18	0x3f3d30eb	0.7390277
19	0x3d4ff8a0	0.050774217
20	0x3da3e247	0.08002143
21	0xbe833f39	-0.25634173
22	0xbeb20832	-0.34771878
23	0x3ed0add8	0.40757632
24	0xbd0dbc23	-0.03460325
25	0xbea1c636	-0.31596535
26	0xbd92f9de	-0.07176565
27	0x3b1a81c7	0.0023575888
28	0x3db93f71	0.090453036
29	0xbced275a	-0.028949428
30	0x3ebe1cf1	0.37131456
31	0x3e4b694b	0.19864385
32	0xbde40e27	-0.11135512
33	0x3ec98aca	0.393637
34	0x3c66e225	0.014092003
35	0xbdf79aab	-0.120900474
36	0xbe8e0eff	-0.27745816
37	0x3d9f6225	0.077823915
38	0x3d6c3bd8	0.05767426
39	0x3deac0c9	0.11462552
40	0xbe07d1b7	-0.13263594
41	0x3e230cdf	0.15922879
42	0xbc199db7	-0.009375981
43	0x3ee09020	0.4385996
44	0xbf493ee8	-0.7861161
45	0x3da3e5c6	0.0800281
46	0xbeac5c80	-0.33664322
47	0xbeb3a95c	-0.35090148
48	0x3d2555ba	0.04036496
49	0xbdef320e	-0.11679469
50	0x3d45ff36	0.04833909
51	0xbdff0db4	-0.124537855
52	0x3e95e634	0.29277194
53	0xbce8bf58	-0.028411552
54	0x3e717ec9	0.23583521
55	0x3f13c687	0.57724804
56	0x3d4f4728	0.05060497
57	0xbd9235f6	-0.071391985
58	0x3f5b00f0	0.85548306
59	0x3cb8ea9e	0.022572812
60	0xbf50fb50	-0.8163347
61	0xbcb179c9	-0.021664517
62	0x3f1781a8	0.59182215
63	0x3d425e6f	0.04745334

fc3.weight f4 [4, 64]
0	0xbeca7dab	-0.39549002
1	0xbed42ea6	-0.4144184
2	0xbec2abf5	-0.38021818
3	0xbeafab28	-0.3431027
4	0xbe971b0c	-0.29512823
5	0xbeb51905	-0.3537065
6	0xbf157ddb	-0.58395165
7	0xbe762115	-0.24036057
8	0x3e03b9b9	0.12863816
9	0x3e4c9079	0.19976987
10	0xbf0388eb	-0.51380795
11	0xbd933616	-0.071880504
12	0xbeeadbe5	-0.4587089
13	0x3e1250ed	0.14288683
14	0xbf8745ad	-1.0568138
15	0x40025fef	2.0371053
16	0x3ff56920	1.9172707
17	0xbebd3a9d	-0.3695878
18	0x3f9962d5	1.1983286
19	0xbe98fd48	-0.29880738
20	0xbec5d22e	-0.38636917
21	0xbde0ab63	-0.109701894
22	0x3defcd63	0.11709096
23	0xc0101353	-2.2511795
24	0xbe9f24d0	-0.31082773
25	0x3ef643dd	0.4809865
26	0xbe70bc24	-0.2350927
27	0xbea0523c	-0.3131274
28	0xbed6a9c1	-0.41926387
29	0xbedd8baf	-0.43270633
30	0xbd18d5d2	-0.03731329
31	0x403d2fc6	2.9560409
32	0xbcbc5c3f	-0.022993205
33	0x3dd676f5	0.10471908
34	0xbe90cc5a	-0.28280908
35	0xbddc4068	-0.10754472
36	0x3e9949fa	0.29939252
37	0xbe8ab7f3	-0.27093467
38	0xbf192962	-0.5982877
39	0xbeb4a280	-0.35280228
40	0xbe8de166	-0.27711028
41	0x3ee809d4	0.45319998
42	0xbe42bf43	-0.19018273
43	0x3fbe7e95	1.488238
44	0xbe1540e9	-0.14575543
45	0xbc7f4819	-0.015581154
46	0x3e32ef8d	0.17474194
47	0xbed7d1b9	-0.42152193
48	0xbed27cdb	-0.41110882
49	0x3d305ca8	0.043057114
50	0x3d15423c	0.03644012
51	0xbeb1b23e	-0.347063
52	0xbec54ee6	-0.38536757
53	0xbed11461	-0.4083586
54	0xbd9f314f	-0.07773077
55	0xbe1be5fe	-0.15224454
56	0xbecb6d26	-0.3973171
57	0xbec09d72	-0.3762012
58	0x3fb5a3bd	1.4190594
59	0xbea85279	-0.32875422
60	0xbf10c835	-0.5655549
61	0xbe9de8d5	-0.308417
62	0x3ff10c1a	1.8831818
63	0xbec6c05c	-0.38818634
64	0xbe4d2418	-0.200333
65	0xbedef513	-0.43546352
66	0xbee11275	-0.43959394
67	0xbeb0d5d5	-0.3453814
68	0xbecd504b	-0.4010032
69	0xbeba304f	-0.36364982
70	0xbf03bfc4	-0.51464486
71	0xbf0bdc54	-0.5463307
72	0x3ee6fbfb	0.4511412
73	0x3d8a1bb5	0.06743566
74	0xbf66b3be	-0.90118015
75	0xbd17769b	-0.036978345
76	0xbe2ec219	-0.1706623
77	0xbf4a7742	-0.79088223
78	0xbcf36d37	-0.029715164
79	0x4003b93e	2.0581813
80	0x3fc62d59	1.5482589
81	0xbeb2b103	-0.34900674
82	0x3f978237	1.1836613
83	0xbedf42e5	-0.43605724
84	0xbe93c369	-0.28860024
85	0x3ea508a4	0.32233155
86	0x3e8d45e3	0.27592382
87	0xc0199f6a	-2.4003549
88	0xbecba8b1	-0.3977714
89	0x3ee8d28a	0.4547313
90	0xbec6ab93	-0.38802776
91	0xbcafd15b	-0.021462133
92	0xbf31fdaa	-0.69527686
93	0xbedb474e	-0.4282784
94	0xbee388b1	-0.44440225
95	0x40505364	3.2550898
96	0x3b8462a0	0.0040400773
97	0xbf178b37	-0.591968
98	0xbebcdd8e	-0.36887783
99	0x3de0ea6a	0.10982211
100	0xbe163154	-0.14667255
101	0xbefc1bc1	-0.49239925
102	0xbee2e50a	-0.44315368
103	0xbdcaa4f2	-0.09894742
104	0xbf117d45	-0.5683177
105	0x3e11e11f	0.14246033
106	0xbef5fcf3	-0.48044547
107	0x3fd8052a	1.6876576
108	0xbf139bff	-0.57659906
109	0x3d0c43f5	0.034244496
110	0x3ea12151	0.3147073
111	0xbf166c10	-0.5875864
112	0xbec836a7	-0.39104196
113	0xbd838ef1	-0.06423748
114	0xbb94a156	-0.0045358343
115	0xbe4018f4	-0.18759519
116	0xbf3a9491	-0.72882944
117	0xbe9b4da5	-0.30332676
118	0xbe18b5b4	-0.14913064
119	0x3e9b0c9d	0.3028306
120	0xbec08b94	-0.3760649
121	0xbe6978f9	-0.22800054
122	0x3fa6770f	1.3005084
123	0xbef32e12	-0.47496086
124	0xbefc5889	-0.49286297
125	0xbe7dd958	-0.24789941
126	0x400a5afe	2.1618037
127	0xbec3fa86	-0.38277072
128	0xbf021603	-0.5081484
129	0xbecdaceb	-0.40170988
130	0xbed655f3	-0.4186245
131	0xbde86aa7	-0.11348467
132	0x3d8870e9	0.06662161
133	0xbe4bc433	-0.19899063
134	0xbef22fb5	-0.47302023
135	0xbd49ac13	-0.04923637
136	0x3f9c8e7f	1.2230986
137	0x3fdeea8b	1.7415327
138	0x3e187a32	0.14890364
139	0x3c931627	0.017954899
140	0xbe6cc4c0	-0.23121929
141	0xbf261e35	-0.6488984
142	0xbf54c011	-0.8310557
143	0x3fe58383	1.7930759
144	0x3ff9f1c4	1.9526906
145	0xbf552749	-0.8326307
146	0x3f874f88	1.0571146
147	0xbed434b9	-0.41446474
148	0xbe10d5bc	-0.14144033
149	0x3da370f8	0.079805315
150	0xbeca1e4b	-0.39476237
151	0xbf8d5f23	-1.1044658
152	0xbe8e0e1f	-0.2774515
153	0x3f5124bd	0.81696683
154	0xbf120ac8	-0.570477
155	0xbf6acb95	-0.9171689
156	0xbf30a6fe	-0.6900481
157	0xbe0fd3dd	-0.14045663
158	0xbf57a82d	-0.8424099
159	0x40127a75	2.2887242
160	0x3cbd6e55	0.0231239
161	0xbf1389c2	-0.57632077
162	0xbe9e2558	-0.30887866
163	0xbd4f3290	-0.05058533
164	0x3f4d51f6	0.8020319
165	0xbec5b15d	-0.3861188
166	0x3e83c493	0.25735912
167	0xbe9eb7b3	-0.30999526
168	0xbec287f7	-0.37994358
169	0xbe757093	-0.23968725
170	0xbf2127e1	-0.62951475
171	0x4003331e	2.049995
172	0xbf273c80	-0.6532669
173	0xbcf20e0f	-0.02954772
174	0xbf27369b	-0.65317696
175	0xbec1395c	-0.37739074
176	0xbe9e8b3e	-0.30965608
177	0xbd2737c6	-0.040824674
178	0xbdea8da5	-0.11452798
179	0xbf084316	-0.53227365
180	0xbf5e0299	-0.86722714
181	0xbf26fd73	-0.6523048
182	0x3f27e4d2	0.6558353
183	0xbd0ac5b5	-0.033879954
184	0x3e77aca6	0.24186954
185	0xbefce39e	-0.49392408
186	0x3fc67e3a	1.5507271
187	0xbe51702b	-0.20452945
188	0xbee078b4	-0.4384209
189	0xbead4b61	-0.33846572
190	0x3f76c228	0.9639001
191	0xbee0cddb	-0.43907055
192	0xbe998f8a	-0.29992324
193	0xbe88bfc4	-0.26708806
194	0xbeb20fad	-0.34777585
195	0xbedc154b	-0.42984995
196	0xbe91ac63	-0.28451833
197	0xbe9ad743	-0.30242357
198	0xbf3f9d15	-0.74849063
199	0xbef43119	-0.4769371
200	0x3e28a6aa	0.16469827
201	0x3ef37aa4	0.47554505
202	0x3eb928d6	0.36163968
203	0xbc96612b	-0.01835688
204	0xbf073c38	-0.5282626
205	0x3e1bbc4c	0.15208548
206	0xbeebbb15	-0.4604117
207	0x3fd17638	1.6364202
208	0x4008721b	2.1319644
209	0xbd38db43	-0.04513098
210	0x3fd08dbb	1.6293253
211	0xbeceafb3	-0.40368423
212	0xbeb18258	-0.34669757
213	0xbf237b30	-0.63859844
214	0xbf3ca84a	-0.7369429
215	0xc01b3fa8	-2.4257603
216	0xbe9d0b00	-0.30672455
217	0x3dcd24ab	0.100167595
218	0xbe69cdde	-0.22832438
219	0xbeef387a	-0.46722776
220	0xbe4d5b8a	-0.2005445
221	0xbea41917	-0.32050392
222	0xbdd2e117	-0.10296839
223	0x40333428	2.8000584
224	0xbcc66ff5	-0.024223307
225	0xbc39e39c	-0.01134577
226	0xbed4d5b0	-0.4156928
227	0xbd9b61a4	-0.07586983
228	0xbdbe7910	-0.093004346
229	0xbec0be10	-0.37645006
230	0xbf61ef25	-0.8825553
231	0xbeba3ba5	-0.3637363
232	0xbeb0f816	-0.34564275
233	0xbe7eb8f8	-0.24875247
234	0xbeb44f78	-0.3521688
235	0x3fe039ac	1.75176
236	0x3ec446b5	0.38335195
237	0xbdcca540	-0.099924564
238	0x3db990a5	0.09060792
239	0xbe9a5801	-0.30145267
240	0xbeb18b85	-0.34676757
241	0x3de2841f	0.11060356
242	0xbe0673d0	-0.13130116
243	0xbeab0c37	-0.33407757
244	0xbea33212	-0.31874138
245	0xbe1067f2	-0.14102152
246	0xbeaa4232	-0.33253628
247	0xbf011b3b	-0.50432175
248	0xbdf84ec4	-0.12124398
249	0xbec51a95	-0.38496843
250	0x3fbe9921	1.4890481
251	0xbeada801	-0.3391724
252	0xbe17d24a	-0.14826313
253	0xbee1893b	-0.4405001
254	0x3ff97d65	1.9491392
255	0xbe9d7bf6	-0.30758637

fc3.bias f4 [4]
0	0x3d191f91	0.03738362
1	0x3ec6e32e	0.388452
2	0x3e26748c	0.16255397
3	0xbf287770	-0.6580725
