dqn_lunar_lander/checkpoint.pth (torch, 22315 bytes, 6 tensors)

fc1.weight f4 [64, 8]
000000 44 f4 85 3d 77 1c 04 be 74 71 75 bd 7f ea ea be
       0.065407306 -0.12901483 -0.05992265 -0.4588203
000010 68 07 c5 3e 32 87 12 3d 0a 85 65 3e 47 3c 1b 3f
       0.38482213 0.035773464 0.22414032 0.6063885
000020 c6 de a8 3e ca bc 3e be 31 e5 92 be b6 04 e5 3f
       0.32982463 -0.18626705 -0.28690484 1.7892063
000030 82 94 ff 3d 58 b5 f6 be f2 32 49 be f1 13 0f 3f
       0.124794975 -0.4818523 -0.1964834 0.55889803
000040 0b a4 cc 3d 9e c7 ec bd e0 26 39 c0 2f ed 97 bf
       0.09992226 -0.115615115 -2.8929977 -1.1869258
000050 92 f8 49 bf 61 2f b8 3d a6 5f 8f 3d f0 0b 77 3e
       -0.78894913 0.08993412 0.07000665 0.24125648
000060 56 7e 8a 3e 75 75 ba bf e4 ee 15 3f 8e e5 97 bf
       0.27049512 -1.4567095 0.58567643 -1.186693
000070 f0 d2 61 bf 64 3f 23 bf 52 3b 27 3c d1 e2 93 3e
       -0.8821249 -0.637686 0.010207014 0.28883985
000080 04 c2 07 bf 07 12 0f bf 26 a4 eb be ca 6a 56 bf
       -0.5303042 -0.5588688 -0.46023673 -0.837567
000090 ba 68 0c 3f bf b5 a2 3e 4d 64 df 3d 2e 58 c4 3e
       0.548473 0.31779286 0.10907803 0.38348526
0000a0 9f fe 18 3e 48 f8 5b 3d 62 05 86 3e 07 c6 bd be
       0.1494088 0.053703576 0.26175982 -0.37065145
0000b0 14 76 54 bf 34 00 46 3d a7 87 05 3f 8e 7a 49 bd
       -0.8299267 0.048340037 0.52160114 -0.049189143
0000c0 f4 50 f8 be b9 06 ef 3d 1e d2 95 be a9 5d af bd
       -0.48499262 0.11671204 -0.2926187 -0.08562786
0000d0 e0 78 4f 3e c6 de b4 3e 1b 85 f7 3e 1f 67 83 be
       0.20260954 0.35326213 0.4834374 -0.25664613
0000e0 a4 10 47 be 78 7b a8 be 71 93 5c 3d 75 15 6a bf
       -0.19439942 -0.329067 0.05385155 -0.9143899
0000f0 2c 54 16 3f ec 62 85 3e f7 db db 3d 28 5c f4 3e
       0.58722186 0.26052034 0.10735314 0.4772656
000100 53 ca a9 bd 2c 98 04 3e b6 60 ce bc b2 b7 78 bf
       -0.082905434 0.12948674 -0.0251926 -0.97155297
000110 10 fb c6 3e 39 65 05 3f 07 b1 cc be bd 2b 58 bf
       0.3886342 0.5210758 -0.3997881 -0.8444174
000120 55 52 8a 3d 45 54 56 3e 83 12 83 3f e2 66 e7 3f
       0.06753985 0.20930584 1.0240024 1.8078272
000130 41 f8 ae bf 95 20 17 be 58 1a 85 bf e2 41 ee bc
       -1.3669511 -0.14758523 -1.0398664 -0.02908415
000140 5f d2 45 be 9c d2 6c 3f 4b 10 8d 3e 58 c0 d6 bf
       -0.19318531 0.92508864 0.27551493 -1.6777449
000150 70 d3 62 be fe 0c 07 3e e2 bf 4f 3d 8c 06 a3 be
       -0.2215097 0.1318855 0.050720103 -0.31840932
000160 e5 fc 2f 3e be aa 67 bd 9c 8e de 3e 8d e7 05 3f
       0.17186315 -0.056559317 0.43468177 0.52306443
000170 ef 44 02 3e 38 10 b3 3e 88 73 08 bf 7d c0 ae be
       0.12721609 0.3497331 -0.53301287 -0.34131232
000180 be 5a dd 3c 30 82 1e 3e df c8 1c be 5e a8 d0 3c
       0.027020808 0.1547935 -0.15311001 0.025470909
000190 5c 76 07 3f 0a 43 42 3f be b9 f2 be c4 57 8c be
       0.5291498 0.75883543 -0.47407335 -0.2741071
0001a0 ad e0 76 bf d8 7c 30 bf a2 74 44 bf 05 06 79 bf
       -0.9643658 -0.68940496 -0.7674047 -0.9727481
0001b0 be fe 61 3c 3d a0 6b bd 41 13 96 3d 5d b7 24 3e
       0.013793645 -0.057525862 0.07327891 0.16085573
0001c0 ea df 33 be e3 d4 21 3f a6 28 86 3e 9e 31 f9 bf
       -0.17565885 0.63215464 0.26202887 -1.9468267
0001d0 ff 7f d9 be 3d 0a d9 bb a1 a5 eb 3d fa de 65 be
       -0.42480466 -0.006623535 0.115062006 -0.2244834
0001e0 29 8d 94 bd 3d ba 27 3e f7 96 2a bf c3 bf 0f 3d
       -0.07253487 0.16379638 -0.66636604 0.035094988
0001f0 c6 66 38 3f e1 9e a9 be 7e 85 87 bf 06 10 0d 3e
       0.7203182 -0.33129027 -1.0587614 0.13775644
000200 7c a9 33 3e bc ae 7f be 07 72 57 3e d2 d5 2b bf
       0.17545122 -0.24969 0.21039592 -0.6712314
000210 d5 21 fa be 08 5b 12 bf 40 75 fa 3e 08 a3 11 bc
       -0.48853937 -0.5717015 0.4891758 -0.008888967
000220 5d 50 df 3e 62 ff b7 3e 78 be 40 3d 7c fd ad 3c
       0.43616 0.3593703 0.047056645 0.021239035
000230 54 68 e0 be cd 1e 26 3f 90 3d 03 3f 0d 83 10 bf
       -0.43829596 0.6489075 0.5126581 -0.5644997
000240 ab 1a 49 bf 96 28 cd be 33 70 fd 3e eb 24 18 bf
       -0.7855632 -0.40070027 0.49499664 -0.5943133
000250 0a 67 0b c0 7b 3f 9a 3d 12 79 a7 bd d8 08 ea be
       -2.178164 0.07531639 -0.08177389 -0.45709872
000260 21 60 4b bd 5b 18 57 3f 50 f3 76 bd e2 c6 d7 bf
       -0.049652223 0.8402154 -0.060290635 -1.6857569
000270 3b 82 24 3e 09 e5 b8 be 80 fa ff bd 7e 7e 6e be
       0.16065304 -0.3611224 -0.12498951 -0.2329044
000280 af 1e 19 bf 3d 60 42 bf 81 43 9f bf 42 ff 67 bf
       -0.59812444 -0.759281 -1.2442476 -0.9062387
000290 46 90 d5 3e fb 0f 2f bd 5c cf 06 be ad 55 3a 3d
       0.41711634 -0.04273985 -0.13165039 0.045491863
0002a0 4c 15 62 be ac 7d 2e 3e 47 d7 a7 3d 70 bc a2 3d
       -0.22078437 0.17040128 0.08195358 0.07946098
0002b0 2e 5f 23 3f 70 93 ca 3e 09 c4 9f 3d e4 55 1f 3f
       0.6381711 0.3956561 0.078010626 0.62240434
0002c0 22 33 82 3e bd 2a 12 bf 5a f4 b6 3f e9 86 01 bf
       0.25429636 -0.57096463 1.429332 -0.5059648
0002d0 21 74 ad be 23 3f 2c 3e de 50 a5 3e 70 00 0c 3e
       -0.33877662 0.1682096 0.3228826 0.13672042
0002e0 66 78 24 3f 2c fd 65 3d 45 b2 cd 3e a1 bd dd bc
       0.64246213 0.056149647 0.4017507 -0.027067961
0002f0 0f c2 d7 be 57 11 8c 3e cb 3e 07 3f c0 66 8b 3e
       -0.42140242 0.2735698 0.5283019 0.2722683
000300 a2 78 91 bf 99 33 80 be 3c 3e 56 bf 63 1f 56 bf
       -1.1364939 -0.25039366 -0.8368871 -0.8364164
000310 9c ea f7 bd 9f 63 4f be 65 6c e8 3d b4 c3 67 bc
       -0.12105295 -0.20252846 0.113487996 -0.01414578
000320 eb f2 d2 bd e1 69 3c bd 8c 0c 21 bf 6b 71 c4 bd
       -0.10300239 -0.04599941 -0.6290977 -0.09591945
000330 28 6f 99 3e ae fe c4 3e 8b fc cc 3d dd 7d 01 3f
       0.29967618 0.38475555 0.10009106 0.5058268
000340 6f 27 8c be fe 74 e1 bd 55 f2 7d 3e 8f 14 38 bf
       -0.27373835 -0.110086426 0.24799474 -0.7190637
000350 e8 e3 b9 be 26 79 b0 bc 6f 13 90 be 7f 91 94 be
       -0.3630669 -0.021542143 -0.28139827 -0.29017255
000360 29 bd 84 3e d1 89 a6 bf d8 93 5d 3f ba ce 4d bf
       0.25925568 -1.3010808 0.86553717 -0.80393565
000370 1f 88 25 3e 4e 90 28 3e 28 8c e9 3d d1 78 78 3e
       0.16165207 0.16461298 0.11403686 0.24264838
000380 73 f4 31 bf 5c 22 54 3f 3b b2 ed bf 30 d5 08 be
       -0.69513625 0.8286493 -1.8570017 -0.13362575
000390 54 87 2d bd e2 62 8f bd 74 9d 7b 3d c9 56 49 3e
       -0.042365387 -0.07001282 0.061429456 0.19662012
0003a0 d4 7c 31 be fc 25 a5 3f fe 15 29 3f d4 a3 ce 3c
       -0.17332774 1.2902217 0.6604918 0.025224604
0003b0 7b db 03 bf ac 1a 70 3f 23 2d 16 bf 1f 0b 9f be
       -0.51506776 0.937907 -0.58662623 -0.31063172
0003c0 52 a4 56 3e 3e 69 9c 3f 3b 1a c8 3d 94 af f2 bd
       0.2096112 1.2219617 0.09770628 -0.11849895
0003d0 62 b0 e5 3e 75 cf 8a bf 91 a4 cb 3d 9c 15 a8 be
       0.44861132 -1.0844561 0.09943498 -0.32828987
0003e0 8b 7f 00 3e 61 4a 3f 3d 4a e4 15 c0 d7 ba a4 3f
       0.12548654 0.046701793 -2.3420587 1.2869519
0003f0 10 fb 82 bd df 36 40 3e 33 02 03 bf a7 1d da be
       -0.063955426 0.18770932 -0.5117523 -0.42600748

fc1.bias f4 [64]
000000 b7 f7 a0 be 3a 2b cc be 12 39 e2 3c 7d 77 87 bd
       -0.3143899 -0.3987673 0.027615104 -0.066145875
000010 85 71 fb be 90 e8 88 be 46 a7 a0 3e 2a d2 7f be
       -0.49110046 -0.2673993 0.3137762 -0.24982515
000020 ac 1e 95 3e 53 9d af bc 50 18 44 3f b0 e5 09 bf
       0.29124963 -0.021437323 0.765996 -0.538661
000030 23 5f b1 be a8 40 4b be 21 bb 21 3f bf 7e 3c bd
       -0.34642896 -0.19848883 0.6317616 -0.046019312
000040 5f 43 02 be 6a d7 19 bf 1c dc a3 3e ec bc 6c 3f
       -0.12721013 -0.6009432 0.32003868 0.9247577
000050 6f e4 bb be 3f 0b 82 be 3b e7 f3 be dc 67 09 bf
       -0.36697719 -0.25399205 -0.47637352 -0.536741
000060 cb bb ce bd 50 be 04 bf fd a7 58 be af c3 d2 be
       -0.100944124 -0.51852894 -0.21157832 -0.4116492
000070 84 bb c5 bc ed 08 3a be 04 27 d2 bd 55 3b 64 bd
       -0.024137266 -0.18167467 -0.10261348 -0.055720646
000080 cc f2 a8 be 5a b5 c1 3e f3 8f ee be c0 4c 26 3e
       -0.3299774 0.37833673 -0.465942 0.16240215
000090 d1 8f 24 3e 98 52 82 be 97 be ab be 0d d9 a1 be
       0.16070487 -0.2545364 -0.33543846 -0.3161091
0000a0 74 35 a7 3e 38 76 c7 be 38 10 97 3c ec b3 47 3f
       0.3265797 -0.3895738 0.01844035 0.78008914
0000b0 c8 c7 ab be 3b 2f 0c be 06 0e 8e 3f 9d 76 a0 bd
       -0.33550858 -0.13689892 1.109803 -0.07835124
0000c0 cf 2c 51 3e 64 d1 b4 be f1 4a 1e 3f e2 42 8c 3b
       0.2042725 -0.35316002 0.618331 0.004280434
0000d0 b7 87 2e 3f bb 4d 82 3e eb f1 6b be 15 1b f3 bd
       0.68175834 0.2544993 -0.23041503 -0.118704
0000e0 7c 01 83 bd bb 23 03 3f 49 d6 e3 3e 72 4b 87 3e
       -0.063967675 0.51226395 0.44499424 0.26424748
0000f0 d3 7d a3 be 3a 59 2b be 8f 10 24 be 6e 4c e7 bd
       -0.31931934 -0.16733256 -0.16021942 -0.11293875

fc2.weight f4 [64, 64]
000000 68 83 3a 3c e7 ef 1c 3f 4e de fd be 4e 9e 44 3d
       0.011383869 0.6130356 -0.49583668 0.048002534
000010 fc 9a 88 be e3 11 64 3c 9e 90 4e 3e 2a 7c 41 be
       -0.26680744 0.01392028 0.20172355 -0.18895021
000020 c3 bd 27 3f 8e 02 b6 bd 85 57 78 3d 07 86 6c 3f
       0.6552393 -0.08887206 0.06063034 0.9239201
000030 6b 29 1b 3e 37 73 d3 3e d9 89 63 3d 10 99 92 3f
       0.15152518 0.4129884 0.055551384 1.1452961
000040 83 5a 40 bd 42 89 4b 3f fb 9d 07 bf 9b 9b 98 3d
       -0.04696132 0.79506314 -0.52975434 0.074515544
000050 70 b1 14 3c 14 48 56 3e 49 d0 34 3f 89 3d 0e 3f
       0.0090755075 0.20925933 0.7063032 0.55562645
000060 65 15 02 3f da 43 74 3d d7 3d ba be 33 1c 3f 3f
       0.50813895 0.05963502 -0.36375305 0.74652404
000070 4d bc b7 3e 1b 7c 5b bf 93 cd 11 bf 87 a4 6e bf
       0.3588585 -0.85736245 -0.56954306 -0.932198
000080 c7 00 86 be db 84 f3 3e f3 2f 08 3e da 46 16 3e
       -0.26172468 0.47562298 0.13299541 0.14675465
000090 c6 e6 63 3e 73 37 2e 3f 30 9d 35 3d 15 ef 4a 3f
       0.22256002 0.6805336 0.04433936 0.7927106
0000a0 83 16 2c bf e7 08 16 be 37 2c d6 3e ea ec 46 3f
       -0.6722185 -0.14651833 0.41830608 0.7770525
0000b0 a4 df af bf 10 61 e7 3e b1 75 1b 3e 06 a5 42 3e
       -1.3740125 0.4519124 0.15181614 0.19008264
0000c0 d2 95 4e 3f 67 43 8f bf 65 56 f9 3e b9 85 09 c0
       0.8069736 -1.1192445 0.48698726 -2.1487868
0000d0 88 9e a7 bf ed 3e 79 be c7 30 cc 3e 50 62 0b 3f
       -1.3095255 -0.2434041 0.39880964 0.5444689
0000e0 a1 88 e4 3e 40 7c ea bd 70 78 80 3e 66 16 a2 3d
       0.4463549 -0.1144948 0.25091887 0.079144284
0000f0 d2 39 35 bd 5b d4 d4 3e f4 b0 86 bb 23 cf e6 3e
       -0.044244595 0.41568264 -0.00411045 0.45079908
000100 9d 0e aa be 24 ae 0a 3f 09 92 92 bf 81 63 b6 bd
       -0.33214274 0.5417197 -1.1450816 -0.089056976
000110 91 a4 17 bf d7 86 09 3e bc cd 00 3f c5 02 e2 be
       -0.59235483 0.13430344 0.50313926 -0.44142738
000120 72 8c f5 3e 21 6b 30 be c7 da 28 3e d8 d6 73 be
       0.47958714 -0.17228366 0.16489707 -0.23812425
000130 65 e2 3a bf 1b 73 f3 3e 2e 01 21 3d 8c 14 bc 3f
       -0.730017 0.47548756 0.039307766 1.469377
000140 0d 20 4b be cc ee e4 3e a6 bd 0e be 7a bb 28 3e
       -0.19836445 0.44713438 -0.13939533 0.16477767
000150 35 e0 c1 3e ed f4 b4 be 81 fb c5 3e 12 1a 26 3d
       0.3786637 -0.35343114 0.38668445 0.040552206
000160 8f 0a 71 3f d2 fd d0 be 1d 6f 29 bf e9 e4 ae 3e
       0.94156736 -0.4081865 -0.6618517 0.3415902
000170 17 57 c0 be c1 54 97 bd 40 78 cc be fe 92 ba bf
       -0.37566444 -0.073892124 -0.39935493 -1.4576108
000180 dc 7d 88 be 2e ba 65 3f a7 22 7c bf f5 e2 ed 3c
       -0.26658523 0.8973721 -0.98490375 0.029038886
000190 d0 1a 49 bf 3b b0 31 3e ca 4f af 3d 83 c7 d5 3e
       -0.7855654 0.17352383 0.085601404 0.41753778
0001a0 e5 cc b0 bf f6 cf aa be 4d 9d 71 3e ae 65 71 3f
       -1.3812529 -0.33361787 0.23595162 0.94295776
0001b0 34 b0 d4 bf f0 fb 19 3f 46 d8 f6 3e 40 fb c9 3d
       -1.6616273 0.6015005 0.4821188 0.09862375
0001c0 bf 77 0e 3f be 3c aa be fa 38 92 3e 41 d3 61 c0
       0.5565147 -0.33249468 0.28559095 -3.528519
0001d0 2b be 04 bf 89 00 8d be 43 bd b9 3e f3 c0 3d 3f
       -0.51852673 -0.2753947 0.36277208 0.7412254
0001e0 d8 20 f1 3e ab b9 9c 3d 6c db 4a 3e cc 82 5b 3e
       0.4709537 0.07652601 0.19810265 0.21436614
0001f0 cf 6e 2c bf d3 18 fa 3e 05 71 aa be 75 fc 8a 3e
       -0.6735658 0.48847064 -0.33289352 0.27145734
000200 33 5c b8 3e 11 66 b1 3d 8f a9 d5 be 51 c5 28 3f
       0.36007842 0.08662046 -0.41730925 0.6592608
000210 b3 96 05 3f ee 4d 12 3f 51 ed 24 3e 53 41 d9 3e
       0.52183074 0.5715016 0.16106154 0.4243265
000220 7b 7e 14 3d 39 79 03 be 57 63 9f 3d 91 95 d4 3e
       0.036253434 -0.12839212 0.077826194 0.4152036
000230 23 32 fd 3d 31 4c 11 3f 97 1d b0 3d 55 de df bd
       0.123630784 0.56756884 0.08599394 -0.10931078
000240 40 00 cd 3e 89 34 ab 3e 3c 36 2c be 72 c3 96 bd
       0.40039253 0.3343852 -0.16817564 -0.07361497
000250 59 0d 3c 3f 39 e1 af 3e 30 e1 3f 3f 22 84 0f 3d
       0.73457867 0.3435152 0.74952984 0.03503812
000260 63 67 08 3f c8 2f b2 3e 1a 8d 08 3f 04 0f 30 3f
       0.53282756 0.3480208 0.53340304 0.6877291
000270 e4 40 86 3e a1 93 ec be e8 7d 92 bf 58 70 51 bf
       0.26221383 -0.46206382 -1.1444674 -0.8181205
000280 6b 21 a5 3d 9e f8 dd 3d a1 38 44 3f 41 38 b9 3c
       0.080630146 0.108384356 0.7664891 0.022609832
000290 7d 75 9e 3e 9c 5e 03 3f cc f7 ca 3d 72 23 12 3f
       0.3094901 0.5131624 0.09910545 0.57085335
0002a0 9f a9 6b 3e f6 d5 1a 3f 9b 44 ba 3e 79 36 92 bf
       0.23013924 0.6048273 0.36380467 -1.1422874
0002b0 1f ac fd 3e 2a 8e 7d 3e 0d 81 ae bf 0b 22 2d 3e
       0.4954538 0.24761263 -1.3633133 0.16907518
0002c0 32 77 2a 3d 07 00 1a 3f f7 6a 96 bf 82 e1 cc 3e
       0.04161758 0.6015629 -1.1751393 0.400158
0002d0 79 be cd bf 46 84 9e 3d b7 0d 0a bf 1f dd 12 3e
       -1.6073753 0.07740073 -0.5392718 0.14342164
0002e0 81 ef 9e 3e ec b0 e5 be df f1 73 bd 9b ca ad 3e
       0.31042102 -0.44861543 -0.059556838 0.33943638
0002f0 8a 5f 9d 3e 8d 80 e9 bc db 91 73 3a 8d 1f 73 3e
       0.30736953 -0.02850368 0.00092914485 0.23742504
000300 36 ae 4d 3e f6 47 64 3e 25 bf 52 3f e9 f3 29 3e
       0.20085987 0.22293076 0.82322913 0.1659695
000310 f7 9c 13 3f 87 a0 0b 3f 3a 4b 84 3e 70 43 c1 3d
       0.57661384 0.5454182 0.25838643 0.09436691
000320 98 8f 0f 3e 29 61 28 be a2 96 6e 3e 7d 37 e4 3e
       0.1401962 -0.16443314 0.2329965 0.44573584
000330 a5 32 35 3d 43 ff 20 3f 6c e0 35 3e de 99 49 3d
       0.04423775 0.628895 0.17761391 0.049219005
000340 d5 7f bc 3e cb dd 6b 3f 0e 16 1d 3e d3 0f c0 bd
       0.36816278 0.92135304 0.15340444 -0.09378018
000350 a9 a8 4e 3f 7c fa 40 3e 9a fd 4b 3f 2f 5f 04 3f
       0.80726105 0.18845552 0.7968384 0.5170774
000360 4f f2 19 3f 77 b1 8a 3e 7d 40 93 3e 00 45 2b 3f
       0.6013536 0.2708852 0.28760138 0.6690216
000370 c7 4a c3 3e e8 6d 2f bf 06 81 36 bf 14 be 22 3e
       0.38142988 -0.6852708 -0.71290624 0.15892822
000380 cf ac d4 3e 8a 0a db 3d 7b 3b 1d 3f ff 1c ca bc
       0.41538092 0.106953695 0.61418885 -0.02467203
000390 fb fb ac 3e ae fc 94 3f 06 90 fe 3d 33 7e d1 3e
       0.33785996 1.1639612 0.12429814 0.40916595
0003a0 01 89 6b 3d d6 b2 6a 3e 33 c1 ac 3e cc a1 33 be
       0.057503704 0.22919783 0.3374115 -0.1754219
0003b0 37 ad 0b 3f 07 ca 3e 3f 6a 18 42 bf cf 63 21 3f
       0.5456118 0.7452702 -0.758185 0.6304292
0003c0 ac 88 38 be d1 af e2 3e 93 e1 b2 be 90 2b d4 3e
       -0.18020886 0.44274762 -0.34937724 0.41439486
0003d0 df ec 77 bf 97 fc 5e 3d 17 60 1a 3f 61 5e b4 3e
       -0.9684581 0.054440107 0.6030287 0.35228255
0003e0 74 dd a7 3e a5 49 b2 be 16 99 85 3e 05 23 7d 3e
       0.32786143 -0.3482181 0.26093358 0.2472039
0003f0 43 f8 43 3e 6b 1b 0e 3f 51 27 ba 3e 9f 83 8b 3e
       0.19137673 0.55510587 0.3635812 0.27248856

fc2.bias f4 [64]
000000 d1 70 c2 3d f0 57 89 3e bf ae 06 bf 62 f0 9e 3d
       0.09494174 0.26824903 -0.5261039 0.07760693
000010 a9 d3 b1 3e fa 7c 15 bc 6a 9b 0a bd 90 88 8f 3e
       0.34731796 -0.009124035 -0.03383962 0.28033876
000020 60 f1 f0 3b c5 8b d0 bd ea 4b 25 be 81 9b 2b be
       0.007352993 -0.10182909 -0.1614224 -0.16758539
000030 bf 4a 6b be 76 24 d4 be a4 87 1a be 92 aa 27 3d
       -0.22977732 -0.41434067 -0.15090805 0.040934153
000040 2d dd f4 3e 2d 62 c1 bc 85 5b 5f 3e 1b cb e0 3d
       0.47824994 -0.023606384 0.21812256 0.10976239
000050 84 61 3a 3e 0d 26 67 3e bf ae 91 bd 5b f3 a3 be
       0.18201262 0.22573109 -0.07113408 -0.32021603
000060 91 a0 36 3d d0 85 38 3e 3a 78 13 3e 01 50 db be
       0.04458672 0.18019795 0.14401332 -0.42834476
000070 c3 3a 9e bd 59 3d 47 be 63 79 6c be 07 36 1e 3f
       -0.07726052 -0.19456996 -0.2309318 0.6180119
000080 71 b3 86 be b6 cf 07 3e d8 33 ad 3e 72 8e f4 bd
       -0.26308778 0.13262829 0.33828616 -0.11941232
000090 89 8b 80 3e fa 19 29 be 14 a8 22 be e7 25 07 3e
       0.25106457 -0.16513816 -0.15884429 0.13198052
0000a0 4e 2a ae 3d 6e b3 bf bb 63 a2 d2 be 76 e7 bb 3e
       0.08504163 -0.005850247 -0.41139516 0.36700028
0000b0 cb 3d e0 bd f4 01 9e 3d da 71 cd bd d9 77 87 3d
       -0.10949286 0.07715216 -0.10031481 0.06614656
0000c0 5e 15 18 3e 2b 43 2a bf c6 cb b8 be 9f 48 78 bd
       0.14851901 -0.6650874 -0.36092967 -0.060616132
0000d0 ee 91 7c 3f 21 00 b7 3d 4e ad 98 be 7f bd 13 be
       0.9866017 0.089355715 -0.2981972 -0.14427756
0000e0 5b c9 0c 3f e9 b2 44 be 46 c8 e7 bd a1 b5 4a 3e
       0.54994744 -0.19208874 -0.11317496 0.19795848
0000f0 51 57 03 be 28 74 d7 be e5 20 ee 3e 4a f9 d7 3d
       -0.12826277 -0.42080808 0.46509472 0.10545595

fc3.weight f4 [4, 64]
000000 c6 ba 60 bf 06 7e 9b bf aa e3 30 bf 73 d8 f4 be
       -0.87784994 -1.2147834 -0.6909739 -0.47821388
000010 b0 96 e0 be 6e 20 67 bf 58 8d 64 3d 3b b5 d5 be
       -0.43864965 -0.9028386 0.05579886 -0.4173983
000020 f0 a8 a6 bd 3c 3a 74 3d 16 47 b6 be 2e d0 94 bf
       -0.08137691 0.05962585 -0.3560111 -1.1626031
000030 8b b5 14 bf 38 b2 fd be a4 df 76 3f 25 0d 8d ba
       -0.5808951 -0.49550033 0.96435 -0.0010761364
000040 64 18 37 be ac a2 55 bf 49 2d e3 3f ae db 01 bf
       -0.17880398 -0.8345134 1.7748195 -0.5072583
000050 70 96 1b bf a9 c9 81 3f 0a f1 a6 3d dd 9e 23 bf
       -0.60776424 1.0139667 0.08151443 -0.6391428
000060 3c a6 09 bf 5e 71 a9 3f cb c8 73 bf 76 ea 1e bf
       -0.5376928 1.3237722 -0.9522826 -0.6207651
000070 b6 89 0d bf 23 ad 1b bf 98 71 88 be f5 b4 12 40
       -0.55288255 -0.6081106 -0.26649165 2.2922947
000080 cb 16 11 bf 48 1f 18 bf e9 e1 a5 be 33 f0 8e bd
       -0.56675404 -0.5942273 -0.32398918 -0.06979408
000090 47 1c 32 bd 41 c6 23 bf 9e 5a 96 bb 9a 9e 74 bf
       -0.043484 -0.63974386 -0.004588439 -0.95554507
0000a0 12 7d 00 bf 2a af ca be 29 8b 01 bf 2d 4e fe 3f
       -0.5019084 -0.39586765 -0.50602967 1.9867607
0000b0 83 83 25 3d 1b cf 7e bb ae 8b a6 3d 70 bd 3d bf
       0.040408622 -0.0038880769 0.081321105 -0.74117184
0000c0 83 39 29 bf c5 5a fb 3e 4f b2 e5 be ae 14 60 bf
       -0.6610338 0.4909269 -0.448626 -0.87531555
0000d0 c7 58 d1 3f 8b 53 33 bf 81 1b fb be 9c a1 50 3d
       1.6355218 -0.7004935 -0.4904442 0.050935373
0000e0 3d b6 0e 3d 0f 44 e5 be c6 a7 91 3c 64 6e e4 be
       0.034841765 -0.44778487 0.017780196 -0.4461547
0000f0 f8 f9 25 bf a2 02 05 bf ca 0e 1f 40 de a4 18 bf
       -0.6483455 -0.5195714 2.4852777 -0.5962657
000100 ba 60 f9 be 55 c1 0a bf 01 39 0e bf 2e 0a 19 be
       -0.4870661 -0.5420125 -0.5555573 -0.1494529
000110 6c 91 3c bf 34 30 82 be e2 09 47 bc 83 26 45 bf
       -0.73659396 -0.254274 -0.012148352 -0.7701189
000120 2a fc e3 3d 40 f5 85 bd a9 67 2b bf bd aa 2d bf
       0.11132081 -0.06540918 -0.6695505 -0.6783865
000130 9e 85 42 3b f6 3c 40 bf a6 f4 85 3f e5 5d 27 3d
       0.0029681693 -0.7509302 1.0465286 0.04086103
000140 80 3f c4 bd 47 0a 2b bf 62 5f 04 40 d6 3c 1d bf
       -0.09582424 -0.66812557 2.0683217 -0.61420953
000150 5b 95 fe be 0c 61 dd 3f 46 5c 61 3d bb 21 39 bf
       -0.49723324 1.7295241 0.05501964 -0.72317094
000160 1d ff 1e bf ca 8e 92 3f 0a 1c 06 bf a2 10 13 bf
       -0.6210802 1.1449826 -0.52386534 -0.57447255
000170 98 45 ad be b7 a4 6f bf 00 e3 07 bf 61 25 f6 3f
       -0.33842158 -0.9361071 -0.5308075 1.9230157
000180 f5 f2 5e bf 83 79 9b bf 37 75 3b bf c8 b1 c7 3d
       -0.87089473 -1.2146457 -0.7322573 0.09750706
000190 12 cd cf bd f5 9c 00 c0 4e d3 97 3d d1 7e 88 be
       -0.10146536 -2.00958 0.0741335 -0.26659253
0001a0 54 4a 4a bf f0 8d 81 bf 03 90 5e bf c8 bb e9 3f
       -0.79019666 -1.0121441 -0.86938494 1.8260431
0001b0 f0 af 25 bd a2 bd 74 3b 58 8b e6 3d 65 6b 40 bf
       -0.04045099 0.0037344475 0.112570465 -0.7516387
0001c0 60 1b 00 bf 7c 9f 96 bf 44 5d 2b bf 76 23 39 be
       -0.5004177 -1.1767421 -0.6693919 -0.18079934
0001d0 ca 31 8c 3f b1 f2 18 bf 5c a3 70 bf bf b5 2f 3c
       1.0952694 -0.5974532 -0.93999267 0.010724484
0001e0 3e 78 cc 3e a7 9f f2 be fc ec 10 bc 82 a6 3a bf
       0.39935488 -0.4738743 -0.008845564 -0.7291032
0001f0 e2 66 c3 be d2 d3 27 bf ff 5a 33 40 db 71 0f bf
       -0.3816443 -0.6555759 2.802429 -0.56033105
000200 ed b8 56 bf d0 b4 c7 bf b7 23 77 bf 21 76 0a bd
       -0.83875924 -1.5602055 -0.9653887 -0.033804063
000210 35 05 6e be 8a e8 a7 be d3 d0 d0 3c 80 4d 78 3e
       -0.23244174 -0.327946 0.0254902 0.24248314
000220 4c 08 af 3d 98 76 88 3d 0e 3e a0 be 76 e3 43 bd
       0.085465044 0.06663245 -0.31297344 -0.047824346
000230 f1 9b 7d be 2d ad 8a bf ca d2 2d bf d0 5f 2a 3d
       -0.24766518 -1.0834099 -0.67899764 0.04159528
000240 c1 73 e4 3e d6 c7 60 bf a9 fd 89 3f da 29 26 bf
       0.44619563 -0.87804925 1.0780536 -0.6490761
000250 2f 99 8d be b8 c8 6b 3f 23 f7 47 bd a0 43 93 bf
       -0.27655932 0.9210315 -0.048819672 -1.1505013
000260 04 8b 19 bf b3 eb 95 3f 37 2d 80 bf bc 47 7d bf
       -0.59977746 1.1712555 -1.0013798 -0.9893758
000270 45 94 ec be 89 e8 36 bf de c7 c6 be 15 93 09 40
       -0.4620687 -0.7144857 -0.38824362 2.1496022
000280 30 96 37 bf 0e 34 34 bf 86 d1 d3 be 90 32 4f bd
       -0.7171354 -0.7039193 -0.4137079 -0.05058533
000290 d4 a1 12 3f 2d 80 b7 be 1e a6 b6 3b 2e 35 2e bf
       0.5727818 -0.35839978 0.005574002 -0.68049896
0002a0 7f 9a 29 bf d4 43 41 bf e5 3d bb bf c8 d8 0b 40
       -0.6625137 -0.7549412 -1.4628264 2.1851063
0002b0 ab 90 36 3d 24 17 ea 3c 70 44 29 bd 37 af 4f bf
       0.04457156 0.028575487 -0.041325033 -0.8112673
0002c0 4f db ed be 85 bf 2b bf 6c c2 a6 bf ab 33 24 bf
       -0.46456382 -0.6708911 -1.3028083 -0.6414134
0002d0 35 ae 96 3f 8b 78 5b bf e3 35 dd be d7 63 a8 3c
       1.1771914 -0.8573081 -0.43205175 0.02055542
0002e0 53 2a 86 3f 35 72 99 bf e4 e5 5b 3d c7 10 b9 be
       1.0481666 -1.1987978 0.053686038 -0.36145613
0002f0 72 52 5e be f4 c3 7e bf 5e 5b f4 3f 66 86 19 bf
       -0.21711138 -0.9951775 1.9090383 -0.599707
000300 88 7d 5e bf 03 bb 36 bf 90 6a 14 bf 52 c4 1d bf
       -0.86910295 -0.7137911 -0.579751 -0.61627686
000310 b8 80 2c bf 4f 46 f7 be 52 d2 47 3d 61 74 5f bf
       -0.6738391 -0.4829583 0.04878456 -0.87286955
000320 13 0a 6a 3c 95 a1 c2 bc 45 97 06 bf ae d8 d0 be
       0.014284628 -0.023758689 -0.5257457 -0.40790313
000330 d5 31 3e bf 70 78 49 bf 5c 67 90 3f fd 46 90 3d
       -0.7429479 -0.786994 1.1281543 0.0704479
000340 b7 fc 0e bf 50 96 1f bf e0 10 ff 3f d7 e2 1b bf
       -0.5585436 -0.62338734 1.9927025 -0.60893005
000350 f7 bd 1b bf 6e 0c f4 3e b4 6f 8b 3c 7d e9 23 be
       -0.6083674 0.47665733 0.017021038 -0.16007037
000360 58 53 03 bf a3 23 a7 3f 87 68 65 bf fc 7c 15 bf
       -0.5129905 1.305775 -0.8961262 -0.58393836
000370 23 ef 41 bf e3 29 c3 be 6b 66 c4 be ff 70 1b 40
       -0.7575552 -0.38117895 -0.3835939 2.4287717
000380 25 af 00 bf c2 e4 d5 be e8 6a 2f bf 45 88 bb bd
       -0.5026725 -0.4177609 -0.685225 -0.09156851
000390 85 de 97 bd 52 7f 85 bf 34 f8 8d bd f4 44 72 bf
       -0.07415489 -1.042948 -0.069321066 -0.94636464
0003a0 d2 af fc be af 58 a9 be 7f 5d e6 be 3d 25 13 40
       -0.4935289 -0.33075473 -0.44993207 2.2991478
0003b0 8b cd 62 3d 27 ac f3 bd 3d 05 69 3d ce 95 08 bf
       0.055371802 -0.1189807 0.05688976 -0.53353584
0003c0 a6 33 1c bf e2 88 19 3d 35 bb 53 bf 61 1b 7b bf
       -0.6101631 0.037484057 -0.8270753 -0.9808865
0003d0 98 2e b0 3f 24 03 3e bf 0f 75 da be 40 c0 76 3c
       1.3764219 -0.7422354 -0.42667434 0.015060484
0003e0 c3 2b 69 3e c7 9c 60 bf 45 e6 a4 3c 27 67 07 bf
       0.227706 -0.87739223 0.020129332 -0.52891773
0003f0 04 e1 a3 be 9e f7 5f bf 3d 16 21 40 f9 fd ff be
       -0.3200761 -0.8748721 2.5169823 -0.49998453

fc3.bias f4 [4]
000000 7c 58 c9 3b 4e 8f f3 3d 7b 08 15 3f 5e 6f 56 be
       0.0061445814 0.118925676 0.58216065 -0.2094092
